data/model.pth (torch, 24884 bytes, 5 tensors)

model.0.weight f4 [64, 54]
000000 70 63 d2 bd 6f 3f ee bd 75 47 1b be e3 54 e0 bd
       -0.102728724 -0.11633193 -0.15163977 -0.10953691
000010 d8 8a 9f 3d c6 ff 09 3e c6 3f 51 bd 48 05 8d 3d
       0.07790154 0.13476476 -0.05108621 0.06885773
000020 de 8e d9 bd 36 39 df bd 82 5c b2 bd 19 5d 46 3c
       -0.10622953 -0.10899584 -0.08709051 0.012107157
000030 45 91 dd bd b9 c9 d9 3c 66 b9 b1 3b 61 9d 09 be
       -0.108187236 0.026585447 0.0054237125 -0.13438942
000040 d6 cf 04 be 1d 14 56 3c e8 0c cf bd f2 09 a7 bd
       -0.12969908 0.013066319 -0.101098835 -0.08156194
000050 d6 95 d0 bd c1 f8 58 bd f4 06 cf 3d 32 e8 f6 bb
       -0.10184829 -0.052971605 0.10108748 -0.007535004
000060 c6 a1 71 3d 4e 14 42 3d 3f 4a ea bc 59 63 ae 3c
       0.05899217 0.047382645 -0.028599856 0.021287607
000070 1a 6d 0d b9 f3 f5 2e bd aa a4 a8 3d ca 5c 11 3d
       -0.00013487451 -0.042715024 0.08234532 0.03548888
000080 89 9a 93 bd a1 3f ea bd 7a e4 bb 3c 8c 82 15 3d
       -0.072072096 -0.114379175 0.022936095 0.036501452
000090 37 a0 33 3d 7c 2d f1 bd cc 85 a7 bc 4a 6a ac bd
       0.043853965 -0.117762536 -0.020449542 -0.084187105
0000a0 6a 5f b5 3d 83 8d 6d bc 9a c4 c4 3d 67 05 96 bc
       0.088560894 -0.014499071 0.09607811 -0.018313123
0000b0 82 56 73 bd 67 b8 7b 3d 11 26 fc 3d a6 c2 8f bd
       -0.059408672 0.061455157 0.12311948 -0.07019548
0000c0 30 e7 3a ba b6 9c 05 be fc cd 9d 3d 05 c1 f3 bd
       -0.00071297865 -0.13048062 0.07705304 -0.1190205
0000d0 e5 83 d4 bd 3d 4e a9 3d 1a fb 9a bd a4 f6 b1 bc
       -0.103767194 0.08266876 -0.07567425 -0.021724053
0000e0 f7 df d2 3d c3 a4 ae bd 7d cb 67 bd 44 0e 09 3e
       0.10296624 -0.085275196 -0.056590546 0.13384348
0000f0 82 ad d1 3c e8 a2 d3 ba 89 30 07 be aa 16 cc 3c
       0.02559543 -0.0016146572 -0.13202108 0.02491315
000100 dc cc e0 ba 74 b0 02 be 73 cb 02 be 65 7f 19 3d
       -0.0017150897 -0.12762624 -0.12772922 0.03747501
000110 b3 26 ed 3d f0 37 e8 3d d4 77 cc 3b ea ed b7 bd
       0.11579647 0.11338794 0.0062398706 -0.089809254
000120 38 b7 a4 bd 64 20 45 bc 89 be af bd 50 a1 60 ba
       -0.08042759 -0.012031648 -0.085812636 -0.00085689593
000130 17 9e 68 bc 5d 35 1b 3d 32 01 a3 3d ac bf 2a bd
       -0.014197848 0.037892688 0.07959212 -0.0416867
000140 3c ad f6 bd 6b 15 00 be b8 08 0b ba 3b 12 d7 bd
       -0.120447606 -0.1250817 -0.00053037284 -0.10501524
000150 70 6b 0c bd 7a c5 6c 3d 4c b5 a1 bd 4d 64 4c bd
       -0.034282148 0.057805516 -0.07895908 -0.04990034
000160 2c 4f b4 bd 37 63 70 3d 6f 88 c8 bd da 2c 14 3d
       -0.08804163 0.05868837 -0.09791648 0.036175586
000170 d2 70 43 3d 7a 36 67 3d ba 0b 13 bd 70 e4 43 3d
       0.047715016 0.056448437 -0.035899855 0.047825277
000180 f1 ff d6 bd d6 64 12 3d 72 71 a9 bd e4 a3 07 3e
       -0.10498036 0.035740696 -0.08273591 0.13246113
000190 4e 60 43 3d 06 b0 c5 bc 5b 1f 07 bc 07 38 f2 bd
       0.047699265 -0.024131786 -0.008247222 -0.118270926
0001a0 b7 7f 86 3d d8 15 be 3d 29 bd eb 3d ee 31 25 bd
       0.065673284 0.0928151 0.11510689 -0.04033082
0001b0 ea 0c da 3d 36 86 0f 3c ba 1b e4 bd cc 27 04 3e
       0.106469944 0.008760026 -0.11138101 0.12905806
0001c0 67 5c b6 3d 6a 6b 6a b9 f2 5f d8 bb 26 d0 d8 3d
       0.08904343 -0.00022355994 -0.0066032344 0.10586576
0001d0 3d 9d 08 3d 0f e6 94 bd 93 25 e2 3d c4 b1 e5 bd
       0.03335308 -0.07270443 0.11042323 -0.11215547
0001e0 2f 8c 9e 3c ed ed 27 3d fb af 8c bd 59 17 83 bd
       0.019353954 0.040998388 -0.06869503 -0.064009376
0001f0 b1 82 e0 3b a5 3e 05 bd b1 d7 f3 3d 6b b5 00 3e
       0.006851517 -0.032530446 0.11906374 0.12569205
000200 b7 22 dc 3d 88 40 ff 3c f7 83 83 b9 b2 31 ff 3c
       0.10748809 0.0311587 -0.0002508459 0.031151626
000210 a5 45 78 bd dc 38 d7 bd 31 20 e4 ba dc ca 05 be
       -0.060613293 -0.10508892 -0.0017404613 -0.13065666
000220 92 a9 e6 bd 04 48 ff 3d e1 30 f9 bc e5 65 a7 3c
       -0.11262812 0.12464908 -0.030418815 0.02043433
000230 a9 ad 98 3d 13 b6 0b bd 79 cc e4 bd d5 e3 90 bd
       0.07454998 -0.034109186 -0.111718126 -0.070747055
000240 50 17 d8 bd f4 4c d0 bc 3b 08 b4 bd 3a 4e e8 bd
       -0.105513215 -0.02542732 -0.08790632 -0.113430455
000250 7f fa a4 bd f0 10 0b be 46 6e 9d 3b 0a d4 b1 bb
       -0.08055591 -0.1358068 0.0048044054 -0.0054268884
000260 4e e5 f1 bd 6b 39 83 bd ac 8b fd bb dd 42 0a be
       -0.118113145 -0.06407436 -0.0077375975 -0.13502069
000270 d8 93 b7 bd 20 9f 11 3d 26 9e c1 3d 5a 99 a6 bd
       -0.08963746 0.035552144 0.094539925 -0.08134718
000280 83 db 01 be ff 79 68 3d 43 46 b9 bd b6 91 a1 3b
       -0.12681393 0.05675697 -0.090466045 0.0049307
000290 e3 1a df bc bd c0 1d 3d 44 93 9d 3d 42 8a 67 3c
       -0.0272345 0.038513888 0.07694104 0.014132084
0002a0 bd 5f 02 bb 46 84 0d 3e 55 55 af bd 42 7c a2 3d
       -0.001989349 0.1381999 -0.08561198 0.079338565
0002b0 f9 39 e3 bd 85 01 dc bd 92 68 be 3d 5f 96 e9 bc
       -0.11095042 -0.10742477 0.09297289 -0.028514085
0002c0 0a cb cf 3d 12 15 f2 bd 0d 4d 9f bb cd ad 6d 3c
       0.101461485 -0.11820425 -0.00486148 0.014506769
0002d0 fa 1f 03 bc 77 16 68 bd 85 06 8a 3d 72 9a de bd
       -0.008003229 -0.05666205 0.06739525 -0.10869302
0002e0 a1 40 5a 3c f9 82 b4 3d e7 f6 06 be ad eb b4 bd
       0.013321073 0.088140436 -0.13180123 -0.08834014
0002f0 e0 f3 a1 bd 54 16 63 bd 6d 58 71 bd 51 0d cd bd
       -0.079078436 -0.055441216 -0.05892222 -0.100123055
000300 87 51 54 3c 22 25 04 3d 9d 9e 73 bd 47 ba 7e bc
       0.012958891 0.032261975 -0.059477437 -0.015547342
000310 e3 6c be bc b2 6f bd 3d b3 b3 c0 3d 50 da eb bd
       -0.02324528 0.0924982 0.09409275 -0.11516249
000320 66 42 08 be 70 75 ff 3d 56 11 cb 3d 5f e6 78 3d
       -0.13306579 0.12473571 0.09915416 0.060766574
000330 e8 7f 56 3c 70 9f 7c 3c 7e 61 67 3d c4 e1 4a bc
       0.013092019 0.015418872 0.05648946 -0.012382928
000340 8c 3d 09 3d c5 5e e8 3d 9f ba 03 3d f4 f3 93 bd
       0.03350596 0.11346201 0.032160398 -0.07224265
000350 f4 6d 40 3d 19 23 18 bd ee 48 22 bd 35 82 12 3d
       0.04697986 -0.037142847 -0.039620332 0.035768706
000360 0e 14 d8 bd 12 53 0b bd 7d ab aa 3d 90 74 e3 3d
       -0.105507 -0.03401477 0.0833349 0.11106217
000370 43 74 e2 3d e7 15 da 3c 7d b8 86 3d 83 97 e2 3d
       0.110573314 0.026621772 0.06578157 0.11064055
000380 68 97 85 bc 12 bf 25 3d e1 a3 c7 3c aa 67 11 bd
       -0.016307548 0.040465422 0.024370136 -0.035499252
000390 0c d2 10 3c dd 09 90 bd ee 58 c3 3d 5a 2c ea bd
       0.008839142 -0.07033131 0.09538446 -0.11434241
0003a0 9f 5b 88 bc 01 c8 8d 3d 39 c2 f9 3d 62 53 05 3e
       -0.01664525 0.06922913 0.12195248 0.1302009
0003b0 23 23 18 3d ac 33 40 3d b2 9e e9 3d 81 ee 59 bd
       0.037142884 0.04692428 0.11407222 -0.05320597
0003c0 fa 91 aa 3d c3 53 93 bc 0f 6d 61 bd 66 f9 72 3d
       0.08328624 -0.017984277 -0.055035647 0.059319876
0003d0 2c 20 e4 3c 55 5c dd bc 27 70 c7 bd dd 02 33 bd
       0.027847372 -0.027021566 -0.09738188 -0.043703903
0003e0 90 7d d6 3d 4a 15 9f 3d 49 dc e3 3c 47 c6 76 3d
       0.10473168 0.077677324 0.027815001 0.060247686
0003f0 b1 54 3b 3d 2b c7 7b bd c1 7b 09 be 8c b8 87 bb
       0.045735065 -0.06146924 -0.13426115 -0.0041418727

model.0.bias f4 [64]
000000 5c ba 00 3e 8a c3 c1 3d ac be e6 3d 57 8f 4d bd
       0.1257109 0.09461124 0.112668365 -0.050185528
000010 88 e4 d4 3c 01 e0 47 bc d8 99 df bd 95 a4 1f 3c
       0.025987878 -0.012199403 -0.10918015 0.009743829
000020 a0 98 d2 3c 9f 6d 90 3c 74 06 fc 3c 2a ad e1 bd
       0.025707543 0.017630396 0.030764796 -0.110193565
000030 b3 65 41 bc ce 51 b4 bd 22 17 ad 3c c8 a3 a8 3d
       -0.011804032 -0.088046655 0.021129195 0.08234364
000040 95 da e0 bd 9f 34 c5 3d ac 9e 6b 3d 58 6f ca 3d
       -0.10979191 0.09629177 0.05752437 0.098845184
000050 f9 50 81 3d b1 64 ed 3d 7e 68 05 be 94 92 30 bd
       0.063142724 0.11591471 -0.13028142 -0.043108538
000060 7f 5a 6e bd 35 e8 e4 3d 3a b1 09 be c7 e8 69 3d
       -0.058191773 0.111771025 -0.13446513 0.05710676
000070 2c 18 60 bd cc d8 48 3d d6 c8 c7 3d 01 82 e7 bd
       -0.054710552 0.04903488 0.09755103 -0.11304093
000080 19 bb 50 3b eb ac 79 3d a8 a8 d1 3d a1 c7 63 bd
       0.00318498 0.060955923 0.10237247 -0.055610303
000090 49 66 b0 bd d1 a0 57 bd a0 32 93 bc 1b b2 b2 3d
       -0.08613259 -0.0526436 -0.017968476 0.08725377
0000a0 77 0f bc 3d ed 89 4c 3b d1 c6 c3 bd ef ea 48 3c
       0.09182637 0.003121014 -0.095594056 0.012263044
0000b0 47 f2 a5 3d be a4 2c 3d 29 bf ff 3b e3 a9 10 3d
       0.08102851 0.042149298 0.0078047705 0.035318267
0000c0 5e 6b d8 bd fd 55 18 bc 8f 57 c4 bc 7f 39 e6 bd
       -0.10567354 -0.009297845 -0.023967532 -0.11241435
0000d0 93 d8 bf bd 5b d7 ab bd bb 9b 1e bd 35 50 c8 3b
       -0.0936748 -0.08390685 -0.038722735 0.006113077
0000e0 80 3b 85 bd 68 23 2e 3d 5a 51 04 3e 96 7e 92 bd
       -0.06505489 0.042514235 0.12921658 -0.071530506
0000f0 8c f1 90 3c 38 e9 64 3d 36 7c 75 3d f8 bd ba 3d
       0.017693304 0.055886477 0.05993291 0.09118265

model.2.weight f4 [32, 64]
000000 69 8c 38 3d 70 5f 6e 3d 00 e3 d8 3b c4 96 2f bd
       0.04505578 0.058196485 0.0066188574 -0.04286839
000010 f2 83 97 3d da f8 a5 3d 9d ff 59 bd d4 f3 8b 3d
       0.073982134 0.08104105 -0.053222287 0.06833616
000020 92 fc e6 bd a4 4b d0 3d 49 c4 9a 3d 99 d3 9d bd
       -0.11278643 0.10170677 0.0755697 -0.07706375
000030 58 7d 36 bd da e3 5f 3d 53 58 dc 3a b5 a3 a0 bc
       -0.04455313 0.054660656 0.0016810991 -0.019609312
000040 db 7c e1 bd 55 3f be bd 08 b8 eb 3c 80 82 21 3d
       -0.110101424 -0.092894234 0.028774276 0.039431095
000050 a2 39 ef 3a 60 5d 41 bd 6a 3f 5a bd fa 4d ce bd
       0.0018251429 -0.04720819 -0.053283133 -0.100734666
000060 ec 2f 91 3d e4 ed ca bd 6a c9 06 3e 47 f9 bd bd
       0.070892185 -0.09908655 0.13162771 -0.092760615
000070 5f f8 7e bd 12 e1 c1 bd e4 79 39 3d da 01 26 bc
       -0.062248584 -0.09466757 0.04528226 -0.010132277
000080 8b a7 7d 3d 78 3b c2 3d 81 26 5b bd 47 34 a8 bc
       0.06192736 0.09483999 -0.053503517 -0.02053274
000090 c8 1c 97 bb 2c 95 07 3b e7 00 c0 bd f8 50 6b 3d
       -0.0046115853 0.0020688279 -0.09375172 0.057450265
0000a0 f0 d9 3b 3c 28 0e d9 3c ee fd 86 bd 90 14 a7 bd
       0.011465535 0.026496008 -0.06591402 -0.08158219
0000b0 ae f5 16 bd 42 d5 5e 3d 83 ec 62 bd a9 b1 ef 3d
       -0.036855392 0.054402597 -0.055401336 0.11703808
0000c0 54 23 01 bd 22 49 9a 3d 54 db 43 bd 13 5a b7 3c
       -0.031527832 0.0753348 -0.04781659 0.022381818
0000d0 fe 85 a4 3d f1 fe 83 3d 61 1a 7e bd f2 68 a2 bd
       0.080333695 0.064451106 -0.062036876 -0.07930173
0000e0 38 3f bc bd 2a 5d d1 bd a0 f8 1e bd 27 a7 2d 3d
       -0.091917455 -0.10222848 -0.038811326 0.042395737
0000f0 f9 fb 24 bd a0 a5 9b bb f8 b2 4c bd a1 74 b0 3d
       -0.040279362 -0.0047499686 -0.049975365 0.08615995
000100 66 05 c8 3d fc 1b db bd 70 f4 0c bc d8 93 9c 3d
       0.09766655 -0.10698697 -0.0086032 0.076453865
000110 90 c7 d5 3c 5c 89 be bd 40 44 11 bc 48 62 d8 bd
       0.026096135 -0.09303543 -0.00886637 -0.10565621
000120 36 8b ef bd c0 d6 dd bc 20 e9 8c bd 80 fb cf 3d
       -0.11696474 -0.02707994 -0.068804026 0.10155392
000130 6a 56 bf bd 38 62 5c bd 70 ba 23 3c 00 38 c9 bc
       -0.09342654 -0.053804606 0.009993181 -0.024562836
000140 d2 0e e0 bd 24 b4 db bd 16 80 c7 3d 20 2e a7 bc
       -0.10940327 -0.107277185 0.09741227 -0.020407736
000150 4a 11 87 bd c0 ea 35 bb 00 b2 b2 ba 40 3c d8 bb
       -0.065950945 -0.002775833 -0.001363337 -0.0065989792
000160 b8 75 58 bd c6 8a c7 3d f8 ea 48 bd a0 7b e7 3d
       -0.05284664 0.09743266 -0.04905221 0.113028765
000170 fc bd 11 bd e8 15 e1 bc c0 b8 f1 bd f6 ac 8e bd
       -0.035581574 -0.027476266 -0.118028164 -0.069665834
000180 d2 49 bc 3d bc dc c5 bd 12 d3 c5 3d 9a 56 f2 bd
       0.091937676 -0.09661242 0.09659399 -0.11832924
000190 bc 93 9c bd fe a9 d4 bd fa 6d be bd e4 7f 49 bd
       -0.076453656 -0.10383986 -0.0929832 -0.04919423
0001a0 cc 70 b0 bd 9c a9 93 bd 4c 92 21 3d 4e fc 9e bd
       -0.08615264 -0.07210085 0.03944616 -0.07762967
0001b0 20 a5 55 bc 68 e8 32 bd 6e a1 fe bd c2 44 be 3d
       -0.013039857 -0.04367867 -0.12433134 0.09290458
0001c0 2c 73 b3 3d b0 bf 7c 3d b0 49 1b 3c 38 16 e0 bd
       0.08762202 0.061706245 0.009478018 -0.10941738
0001d0 20 c9 3e bd 3e 2f db bd a0 ca d3 3b d8 dc 6e bd
       -0.046578526 -0.1070237 0.0064633638 -0.05831608
0001e0 dc 57 c6 bd 98 e1 85 3c 60 61 7a bc d0 97 c9 bc
       -0.096847266 0.016342923 -0.015282005 -0.024608523
0001f0 38 5f 09 bd 14 c4 ae bd dc 0f 7c 3d 2c 55 84 3d
       -0.033538073 -0.08533493 0.061538562 0.06461558
000200 24 95 57 3d f2 81 d4 bd 7e d2 f6 3d 0b d1 f3 bd
       0.052632466 -0.103763476 0.12051867 -0.11905106
000210 40 50 dc 3c 60 9e fc bb b2 6f b6 bd f4 e3 6d bd
       0.026893735 -0.0077093095 -0.08908023 -0.05807872
000220 e8 a7 ba bc 00 94 91 3c 43 e5 bd 3d 4e d1 58 3d
       -0.022785142 0.017770767 0.09272244 0.052933984
000230 80 2e d9 3d 65 f1 f6 3d cd f1 08 bd 7a bb f1 bb
       0.10604572 0.12057761 -0.033433724 -0.0073770853
000240 a2 4d f8 3c ef 88 8d 3c 86 18 81 bd 2e 9a a4 3d
       0.030310456 0.01727721 -0.063035056 0.0803722
000250 4a 09 b2 bd 40 14 6f 3d 43 cd bb 3d 4a 02 a3 3d
       -0.08693178 0.05836892 0.0917001 0.07959421
000260 c3 71 4d bd 70 ca a4 3d 49 93 ec 3d dc 27 cd bd
       -0.05015732 0.080464244 0.1155153 -0.10017368
000270 86 dc ad bd 9c ff 9d bd 3c 8f 63 bd ce 80 cf 3d
       -0.08489327 -0.07714769 -0.05555652 0.101319894
000280 49 4e 6a 3d 80 6a f2 bc 06 57 07 b8 d3 8f a3 bd
       0.057203565 -0.029591799 -3.2267555e-05 -0.07986417
000290 a9 20 68 bd aa b2 ec 3c 89 3d e5 3d 15 db b4 bd
       -0.056671772 0.028893787 0.111933775 -0.08830849
0002a0 68 9b 3d 3d 68 a0 8a 3c 84 74 c8 3d 00 b2 bf bb
       0.046290785 0.01692219 0.097878486 -0.0058500767
0002b0 2c d9 d4 3d 81 a8 e9 3d 82 8a c9 3d 40 a3 87 3d
       0.10392985 0.11409093 0.098408714 0.06622934
0002c0 b8 3a f8 3d 18 c8 be bd d0 25 c9 3d bb 7b c6 bd
       0.12120575 -0.093155086 0.09821665 -0.096915685
0002d0 e1 d8 70 bd 01 3c 99 bd b9 7f ff 3d 30 ae 0a bc
       -0.05880058 -0.07482148 0.12475533 -0.008464381
0002e0 87 72 27 bc 74 ba ad 3d 20 e1 b8 bd 20 cc cf bc
       -0.010220177 0.08482829 -0.09027314 -0.02536589
0002f0 9c c2 65 3d 48 40 25 bd f7 28 1a bc f6 c4 d3 3b
       0.056093797 -0.040344507 -0.009409181 0.0064626886
000300 1a da c3 bd 20 b6 ed 3d aa ce dd 3d 7c 9c 16 bd
       -0.09563084 0.11607003 0.10830434 -0.03677033
000310 50 4c 85 3d 98 1f 9f 3c d0 73 c8 3d 0a fd 88 bd
       0.06508696 0.019424245 0.097877145 -0.06688888
000320 a4 81 80 3d 00 a6 ff 39 68 7b ad 3c 70 69 ba bc
       0.06274727 0.0004876107 0.021177009 -0.022755355
000330 6c 4c 4b bd 54 bc cb bd 38 2a 42 bd 72 9e bf bd
       -0.04963343 -0.0994803 -0.047403544 -0.09356393
000340 10 67 0f bd a6 b6 f0 bd 64 7e 76 3d fa 00 c4 bd
       -0.035010397 -0.117535874 0.06017913 -0.09570499
000350 a4 19 ae bd 88 29 e7 bd d0 5c 5a 3d dc c5 15 3d
       -0.08500984 -0.11287218 0.05331117 0.036565647
000360 fa fb f6 3d dc 31 05 bd f0 c6 bd bd e0 46 c2 bc
       0.120597795 -0.032518253 -0.0926646 -0.023715436
000370 a4 5d 66 bd 7e 88 a7 3d d8 ba ca 3d 94 6b 6c 3d
       -0.056241646 0.08180331 0.09898919 0.057719782
000380 40 0f 74 3c d0 1c 9b bc f0 70 5d 3c 18 f6 31 bd
       0.014896214 -0.018934637 0.013515696 -0.043447584
000390 7c 33 8f 3d 58 4a 14 bd 70 33 c7 bc 5e c3 fa bd
       0.06992242 -0.036203712 -0.02431652 -0.122442946
0003a0 b0 61 0d 3d 70 ed e0 3d 1c 26 56 bd a0 93 0d 3c
       0.03451699 0.109827876 -0.052282438 0.008641154
0003b0 8e 98 b9 bd 00 3c 6d 3b e0 3b 2c bc d4 ec 1f 3d
       -0.090623006 0.0036199093 -0.010512322 0.039044216
0003c0 b0 08 87 3c c0 8c af 3d 1c fa 29 3d fc 93 86 bd
       0.016483635 0.08571768 0.04149829 -0.065711945
0003d0 06 f0 b0 bd 10 1d fb bd b0 47 ec 3c de 53 a9 3d
       -0.08639531 -0.122614026 0.028842777 0.082679495
0003e0 56 44 e2 3d b0 8d 29 bc 00 c5 51 ba fc 0e 4f 3d
       0.1104819 -0.010348722 -0.00080020726 0.0505514
0003f0 10 b9 3b 3d 00 29 d7 bc ea 78 86 bd 14 68 1a bd
       0.045830786 -0.026264668 -0.06566031 -0.037696913

model.2.bias f4 [32]
000000 28 5b 80 3c 76 20 de 3d 69 34 57 bd 80 72 67 3c
       0.015668467 0.10846035 -0.052540217 0.01412642
000010 84 e7 01 bd 90 2b be 3c 60 34 ba 3d 00 a9 45 bb
       -0.03171493 0.023214132 0.09092021 -0.0030160546
000020 5e ed ff 3d 2e 64 e5 3d 51 95 c4 3d 55 ee 9e 3d
       0.12496446 0.112007484 0.09598792 0.07760302
000030 df 44 c9 3d c5 31 81 bd 26 3e d7 bd b9 4f 14 3d
       0.09827589 -0.06308321 -0.10509901 0.036208842
000040 66 28 be 3d c4 bc fc bd f0 75 8e 3c 85 2d b5 bd
       0.09285049 -0.12340692 0.017390221 -0.08846573
000050 0e 99 e3 3d 52 f6 13 bd 1c 87 e6 3d eb 59 00 bc
       0.11113177 -0.03612358 0.11256239 -0.007833938
000060 a8 d6 38 bd 80 5e bb bd 45 4c 99 bd 66 90 ab 3d
       -0.045126587 -0.09148884 -0.074852504 0.08377151
000070 6c 79 3d bd 20 c6 94 bb 09 d7 cc bd 4a 93 da 3c
       -0.046258375 -0.00454022 -0.10001952 0.026681561

model.4.weight f4 [1, 32]
000000 2a 83 5a 3d 2c 93 00 3e f2 40 2b 3e 2f bf d0 bd
       0.053347744 0.12556142 0.16723993 -0.101927154
000010 63 57 05 be 33 aa 2e be 01 55 d7 3d 17 66 35 3d
       -0.13021617 -0.17057113 0.1051426 0.044286814
000020 53 35 7c 3d 3a 4e 52 bd c6 95 11 3e 8c 95 f3 3d
       0.06157429 -0.051344134 0.1421729 0.11893758
000030 8e 7c 2c bc 53 0f 1d be 96 e0 97 bd cc be 1f be
       -0.010527743 -0.15337877 -0.07415883 -0.15600127
000040 b6 b0 ce bc 37 bd 31 3d 0f 2a e6 bd 6c 41 d1 bd
       -0.025230747 0.04339334 -0.11238491 -0.10217556
000050 13 c6 ab bd d7 26 2e bd b4 c2 9d 3d 46 1f 47 bc
       -0.08387389 -0.04251751 0.07703152 -0.012153452
000060 21 40 c5 bc 8f d6 d1 bd ae 8b a0 3c 1c 1f 2e 3e
       -0.02407843 -0.10246002 0.019597854 0.17004055
000070 db ee a7 3c b0 a2 16 3e be 32 d8 bd 4b 76 15 bd
       0.020499637 0.14710498 -0.10556553 -0.036489766
