data/model.pth (torch, 24884 bytes, 5 tensors)

model.0.weight f4 [64, 54]
000000 46 f1 df 3b 02 58 04 bd c2 7b 01 bd b7 7d 94 3a
       0.006834182 -0.032310493 -0.031612165 0.001132897
000010 ca c4 d4 3c af c4 59 3d 71 b3 d3 3d f7 ff b2 3c
       0.025972743 0.053166088 0.1033696 0.02185057
000020 a1 61 1e 3c 2b 5d 00 be 9e a9 e5 3d 01 66 61 3b
       0.009666831 -0.12535541 0.112139925 0.0034393074
000030 f7 7a 55 3d 4d 6a 45 3d 49 69 01 3e 8b e8 69 3d
       0.05211922 0.04819708 0.1263782 0.057106536
000040 86 70 2d bd b7 e9 05 bd 62 bd d2 bd 6d 0d 4b bc
       -0.04234364 -0.03269359 -0.10290028 -0.012393338
000050 d8 34 94 bd 62 0e 4d bd dd 92 0a 3d 5a 11 eb bd
       -0.07236642 -0.050062545 0.033831466 -0.11477919
000060 a2 d6 29 3d de 5b f7 bb 33 3d 00 3e 43 2a ba bc
       0.041464455 -0.007548793 0.12523346 -0.02272523
000070 29 49 bc 3d be 64 8e 3d be 40 cc 3d 31 0c 9e 3d
       0.09193642 0.06952809 0.09973286 0.07717169
000080 c5 6a 32 bc dd 75 75 3d 0e e0 2d bd db 0a f9 bd
       -0.010889714 0.059926856 -0.042450003 -0.12160274
000090 e6 51 b0 bd 0f 2a d8 3d d5 9a 06 be 3c 05 95 3d
       -0.08609371 0.10554897 -0.13145001 0.07276389
0000a0 f8 44 83 bc 7d 84 94 bd 1d 29 e0 3d 3c 69 6c 3d
       -0.016024098 -0.07251833 0.10945342 0.057717547
0000b0 ea fe ce 3d 87 3f 89 bd b4 74 56 bc c2 16 93 3d
       0.10107215 -0.0670157 -0.013089348 0.07182075
0000c0 60 3f 81 bd 9b e0 81 3b 9c 38 d0 3d 58 26 db bd
       -0.06310916 0.0039635426 0.101670474 -0.10700673
0000d0 87 90 c6 3d 13 dc b0 3d 14 5e 0e bd 1a be a0 3d
       0.09695535 0.08635726 -0.03475769 0.07848759
0000e0 10 17 a6 3b c3 56 b0 3d 2f b3 d6 bd 86 2a 80 3d
       0.0050686672 0.086102985 -0.10483395 0.06258111
0000f0 3a 92 9c 3b 2c f5 c5 3d a4 37 06 3d 90 c2 03 3e
       0.0047781738 0.096659034 0.032767907 0.12867188
000100 55 f1 37 3d fe 50 ee 3d b0 51 10 bd ef 60 52 3d
       0.044907887 0.11636542 -0.035234153 0.051361974
000110 bc 14 92 bd 7e 2e f9 bd 93 ad 8f 3d 24 08 a1 3d
       -0.07132861 -0.12167071 0.070155285 0.07862881
000120 cd 74 a2 3b cf 26 49 3c c8 b3 c3 bd 51 bc 35 3c
       0.0049577714 0.012277319 -0.09555775 0.011092261
000130 18 48 05 be 8c 8f 38 3d 56 90 d4 3d 75 48 05 be
       -0.13015783 0.045058772 0.103790924 -0.13015921
000140 53 3d 75 bd e4 01 bc 3c 5a 3d 8b bd 31 7a b7 3b
       -0.059872936 0.02295012 -0.06798811 0.005599283
000150 3c 41 b0 3b 62 b6 03 3e 63 13 94 3d 7b 19 a2 3d
       0.0053788703 0.12862542 0.0723026 0.07915016
000160 cb a2 cb bd 04 52 e4 bd d6 54 ee 3d fd 89 c3 bd
       -0.0994316 -0.11148456 0.11637275 -0.095478036
000170 3c 08 e9 bd 5e e8 84 bd 66 66 9c 3d 94 c4 84 3a
       -0.11378524 -0.06489633 0.076367185 0.0010129386
000180 d6 8f d0 3c d7 61 ec bd 40 bb 89 3c 5a 2c 8d 3c
       0.025459211 -0.11542099 0.01681292 0.017233063
000190 16 7a 06 be 24 ad 5b 3d 51 b8 7f 3c e6 63 c7 3d
       -0.1313251 0.053631917 0.015607909 0.09735851
0001a0 26 f9 c1 bb d8 91 b1 3d a1 cd 46 bd da 47 a4 bd
       -0.0059195934 0.086703956 -0.048535947 -0.08021517
0001b0 bd 1c 2f bd 4b dd 31 bc d9 70 0c 3d b3 49 8e bd
       -0.042752016 -0.010855983 0.034287307 -0.06947651
0001c0 67 1d 4f 3c 07 a7 a1 3d b7 57 be 3d af 0a 85 3d
       0.012641287 0.07893186 0.09294074 0.06496178
0001d0 de eb 15 bd 0f 15 95 bd d0 78 ac 3d b1 b9 18 bd
       -0.036601894 -0.07279407 0.08421481 -0.037286464
0001e0 96 8d 08 be 2c c8 0d bd 51 69 64 bd 62 09 ed 3c
       -0.13335261 -0.034614727 -0.0557645 0.028935138
0001f0 f5 5f b2 3d 54 81 81 bd f1 80 9d 3c 31 b2 c6 bd
       0.087097086 -0.063234955 0.019226523 -0.09701956
000200 61 54 80 bd 08 36 86 bd 82 ba dc bd df 66 b2 3d
       -0.06266094 -0.065532744 -0.10777761 0.08711027
000210 c6 14 1f 3c 3a 10 5b bd 67 d8 ea bd 0e ce e1 bc
       0.009709543 -0.05348227 -0.11467057 -0.027564075
000220 be 77 b6 bc 2a e8 0c be 70 9d c1 bb 8e 2c 6a 3d
       -0.022273894 -0.13760439 -0.0059086606 0.057171397
000230 a1 e6 ad bd 7a e2 e4 bd fe 4f 04 be 14 bb 54 3d
       -0.084912546 -0.111760095 -0.1292114 0.051936224
000240 9d cf b8 3d b9 2f 8c bc d9 57 de bd 51 ec c8 3d
       0.09023974 -0.0171126 -0.10856599 0.09810699
000250 6f dc ae 3b 63 a7 06 be 37 69 67 bd d9 d5 2a 3d
       0.0053363363 -0.1314979 -0.056496825 0.041707847
000260 e9 85 a4 3c 6f ff 57 bd 04 b5 a0 bd 43 9a dc 3d
       0.020083385 -0.052733835 -0.07847026 0.107716106
000270 d4 33 98 3c 5a 4e 94 bc 14 a1 8f 3d b3 83 95 bd
       0.018579401 -0.018103767 0.07013145 -0.0730051
000280 ce ea 82 3d bf 03 e7 bd 91 d5 dd 3d 9e 0f 4e 3c
       0.06392442 -0.112800114 0.1083175 0.012576966
000290 a1 86 96 bc 77 91 ca 3d 00 15 94 3d db c5 a0 3d
       -0.018374743 0.098910265 0.07230568 0.07850238
0002a0 33 38 14 bd 33 0e 8c bd c4 b5 f6 3c ac de 5d 3d
       -0.03618641 -0.06838646 0.03011597 0.054167435
0002b0 c1 75 2d 3d 72 8a b1 bd 0c 86 ee 3d 56 85 d6 bd
       0.042348627 -0.086689845 0.11646661 -0.104746506
0002c0 b1 41 f4 bc 88 69 f7 3d 97 ad bb bd 65 e8 9d 3c
       -0.02981648 0.12080675 -0.09163969 0.019275853
0002d0 c6 89 5b bd b3 f5 9d bc e6 c5 f1 bd 51 5a d1 3c
       -0.053598188 -0.019282198 -0.11805324 0.025555762
0002e0 fb f9 ff bb de 2e 03 be e4 8c fc 3d 94 c0 28 bc
       -0.0078117824 -0.12810847 0.1233156 -0.01029982
0002f0 1f b1 c4 bd 3e 51 67 bc f8 2e 8c 3d 92 89 71 3d
       -0.09604096 -0.014118491 0.06844896 0.058969088
000300 1c 2d e3 bd 0e a7 b0 3d bf 7a c5 bd 32 f5 bb bc
       -0.11092588 0.08625613 -0.096425526 -0.022944067
000310 df e2 75 3d 06 11 8d bd fb cb 81 bd 27 6a c2 3c
       0.060030814 -0.068880126 -0.06337734 0.023732258
000320 4e 1a 24 3d 65 67 b8 3d 8f 97 db 3d 92 81 c2 bd
       0.04006415 0.09004096 0.10722267 -0.0949737
000330 8c 0a e8 3d a1 87 58 3d 39 12 ae 3d e2 0c c2 bd
       0.11330137 0.05286372 0.084995694 -0.094751135
000340 cb 01 f6 3d 94 22 95 bc 41 60 22 3d 79 1f 88 bd
       0.12012061 -0.018204965 0.039642576 -0.06646628
000350 f0 1e 0e bd 3f 6b 24 3d 51 35 b9 3d 14 8b db bd
       -0.034697473 0.04014134 0.090433724 -0.107198864
000360 94 b6 08 be 67 f7 02 3e 8a 53 36 3d ef d0 90 3d
       -0.13350898 0.12789689 0.044513263 0.07071101
000370 2a 28 39 bd 80 7a 52 bd 7b c1 84 3c dc 43 08 3e
       -0.04520432 -0.051386356 0.01620554 0.13307136
000380 96 f8 ac bd 34 f3 0a be c0 84 60 3d e4 e4 ff bd
       -0.084458515 -0.13569337 0.0548141 -0.12494829
000390 11 7c 58 bd 9c 31 70 3c 1f a0 72 bd 37 5a ff 3b
       -0.052852694 0.014660265 -0.059234735 0.007792737
0003a0 25 87 c4 3d 5a 3d 4d 3d db b5 01 be a2 25 34 bb
       0.09596089 0.050107338 -0.12667029 -0.0027488251
0003b0 a2 c1 ec ba 63 22 55 bb f0 21 e6 bd ff 1b f4 3c
       -0.0018063078 -0.0032521717 -0.11236942 0.029798506
0003c0 b7 13 86 3c a0 c4 c8 bd 25 7e 9a 3d d3 64 f2 bc
       0.016366823 -0.09803128 0.075435914 -0.029589092
0003d0 a7 31 f9 bd 96 71 ee bd 2b db 84 bd 42 71 7b 3d
       -0.121676736 -0.116427585 -0.064871155 0.061387308
0003e0 39 ca a3 bd 1d 60 22 3b 0b 65 b9 bd 04 7a f9 bd
       -0.07997555 0.0024776526 -0.090524755 -0.12181476
0003f0 ad fd a1 3d 29 37 03 3e e3 4c 09 3d 21 a3 bd bd
       0.07909713 0.1281401 0.03352059 -0.0925963

model.0.bias f4 [64]
000000 f1 18 0b be 50 b8 93 ba f9 9f fb 3d ea d0 df bd
       -0.13583733 -0.0011270139 0.12286372 -0.10928519
000010 fb 32 27 3d c0 e0 9b 3d 81 50 9d 3c 03 36 73 3c
       0.040820103 0.07611227 0.019203426 0.01484442
000020 a6 76 f6 3d e1 44 02 bd 4a 4b 25 3d 92 bf a9 3d
       0.12034349 -0.03180397 0.040355004 0.08288492
000030 db da 94 bd 62 e4 f0 bd 68 fa ca bd be e0 55 bd
       -0.07268306 -0.117623106 -0.099110425 -0.052216284
000040 6b 82 98 bb 67 b9 73 bd a5 e7 6d 3d e8 d3 5e bd
       -0.004654219 -0.059502985 0.05808224 -0.05440131
000050 2f 33 6b bb 72 c4 e4 bc c2 5f 96 3d d6 f4 70 bd
       -0.0035888662 -0.027925704 0.07342483 -0.058827244
000060 52 9e 07 3c 83 02 d6 bd ae 0e 5a 3d 85 00 6c bc
       0.008277493 -0.10449698 0.053236656 -0.014404421
000070 ac e3 d6 3d 37 71 26 3c c0 f5 e3 bd f4 a6 a2 3d
       0.10492644 0.010158828 -0.111308575 0.07942
000080 af 69 9a bb 85 7a f1 bd d6 70 31 3c 4b 8b ec bd
       -0.0047123055 -0.11790947 0.010830125 -0.115500055
000090 7f dc ea 3d 0e eb 2e 3d f4 a7 91 3d 19 8f d5 3d
       0.114678375 0.042704634 0.07112113 0.10427684
0000a0 25 ec 0c be 32 82 8c 3d d1 bb 8c bd 00 61 35 3d
       -0.13761957 0.0686077 -0.06871761 0.04428196
0000b0 cd d1 d6 bd e7 91 76 3d b3 7a 06 bc 09 89 fd 3c
       -0.10489235 0.060197737 -0.008207965 0.030949133
0000c0 0d 1d 08 be 7e 81 ff bd 17 a9 82 bc 45 30 88 3d
       -0.13292332 -0.124758705 -0.015949769 0.06649832
0000d0 d9 6e 0a be 94 81 e2 3d bd 38 9c bd f6 03 1a 3d
       -0.13518848 0.11059871 -0.076280095 0.037601434
0000e0 06 27 01 bd 46 7f aa bc 08 b5 f8 bd 27 96 6c 3d
       -0.031531356 -0.020812642 -0.12143904 0.057760384
0000f0 3c 2e 9a 3d 17 73 b5 3d ba c9 de bd 1a 18 41 bd
       0.0752835 0.08859842 -0.1087832 -0.047142126

model.2.weight f4 [32, 64]
000000 cc 97 f8 3d fe 3d b3 3d 14 ba ba bd 78 23 b0 bd
       0.12138328 0.087520584 -0.09117523 -0.08600515
000010 30 c1 16 3d 96 5c c5 bd c0 7b cd 3c 2a 23 dc bd
       0.03680533 -0.096368 0.025083423 -0.107488945
000020 67 b2 ae bd 0d 72 e5 bb 83 9e 3f 3c 2b f1 f4 bd
       -0.08530121 -0.0070021213 0.011695507 -0.11960062
000030 37 2a 22 bd a8 37 e7 3d 21 0f 31 3d 82 0d c8 3d
       -0.03959104 0.112899125 0.04322732 0.097682014
000040 3e fe e9 3d 32 9f 27 bb 27 4f e7 bd d2 c0 e1 bd
       0.11425446 -0.0025577066 -0.11294394 -0.11023106
000050 98 7b 00 bd 5c fb b6 3d 64 36 cf bd 6e bc d0 bd
       -0.03136787 0.08934662 -0.10117796 -0.1019219
000060 9c f0 e6 bd 3b 16 66 bd e1 3d e5 3d 93 27 02 be
       -0.11276361 -0.056173544 0.11193443 -0.12710409
000070 78 03 b5 3c 30 14 23 3d 35 72 91 3d df 5c 86 3d
       0.02209638 0.039814174 0.071018614 0.065606825
000080 88 d0 f1 3c 31 d7 72 bd 28 06 fa 3d 3a 4d 91 3d
       0.02951838 -0.059287254 0.122082055 0.07094808
000090 e8 d1 3e 3d 84 20 dd bd 36 5a f4 bd 40 08 d0 3d
       0.0465869 -0.107972175 -0.11931269 0.101578236
0000a0 75 0f c9 bd d0 c2 22 3d 22 81 d1 3d 84 e2 d3 3c
       -0.09817401 0.03973657 0.10229708 0.025864847
0000b0 a8 e8 f8 bd 7b 58 4c bd d7 81 2a 3d 7c 45 a3 3d
       -0.12153751 -0.04988907 0.04162773 0.079722375
0000c0 7c 21 01 be 99 93 4e 3c 98 44 94 3d 16 f4 99 3d
       -0.1261043 0.012608432 0.07239646 0.07517259
0000d0 40 85 67 bd 10 0a 69 3c c3 d0 b9 bd b5 65 48 3d
       -0.05652356 0.0142235905 -0.09073021 0.04892512
0000e0 69 e5 54 3d e5 9d 2c 3d d4 db 1d bd 00 46 f5 3c
       0.051976595 0.042142767 -0.038539723 0.029940605
0000f0 98 56 a8 bd 1d 36 d4 bd 2d 64 8c 3d 46 3b c7 3d
       -0.082196414 -0.10361884 0.068550445 0.097281024
000100 fc 75 41 3d 00 8a 03 3b 14 d6 7d 3d 9e c4 de 3d
       0.04723166 0.0020071268 0.06197174 0.108773455
000110 80 5a 1a bc b8 5a 80 bd e0 14 bf 3d 56 5e d5 3d
       -0.009420991 -0.06267303 0.093301535 0.10418384
000120 80 9d 2c bd f9 b7 fc bd dd b4 2a bd 75 23 4a 3c
       -0.04214239 -0.123397775 -0.04167639 0.012337555
000130 93 43 e1 bb 86 6d 9c 3d 9e f4 44 bd 00 7b 14 3d
       -0.0068745106 0.076380774 -0.048084848 0.036250114
000140 88 11 ac bd 19 a1 41 bd da 85 e0 bd 5e 8a f6 3d
       -0.08401781 -0.047272775 -0.1096303 0.1203811
000150 00 21 b7 3a f4 2a 4c bd 3a 74 a6 3d 18 2c 87 3d
       0.0013971627 -0.04984565 0.08127637 0.06600207
000160 62 89 c6 bd dc 04 0d 3c 9e c7 d6 bd aa 52 04 bc
       -0.096941724 0.008607116 -0.10487293 -0.008076349
000170 00 ce a5 bb 7c e5 53 3d 23 6c fe bd 7b c6 a2 3d
       -0.0050599575 0.051732525 -0.12422969 0.079480134
000180 22 fd c6 3d 15 e0 9b 3d 7c 3b 7f 3d 00 a0 67 3d
       0.0971625 0.076111 0.062312588 0.056549072
000190 40 a1 eb bb c0 22 e6 bb 80 69 89 ba 4a 28 f2 bc
       -0.0071908534 -0.0070231855 -0.0010483712 -0.029560227
0001a0 a3 14 61 3c 60 17 d9 bc 83 c9 03 bd 10 0c d4 3c
       0.01373783 -0.026500404 -0.0321746 0.025884658
0001b0 46 5d ac bd 44 3e 0e 3b 49 83 cf bd e8 7b 51 3d
       -0.08416228 0.0021704594 -0.101324625 0.051143557
0001c0 6f 0f a0 3d 07 f1 48 bc fc 08 d4 3d d0 41 f0 bc
       0.07815444 -0.012264497 0.10353276 -0.029328257
0001d0 10 a7 b3 bc 0f 49 21 3c 80 f4 9d 3c 69 f6 ec 3d
       -0.021930248 0.009844079 0.019281626 0.115704365
0001e0 42 4a 61 bd 98 25 8e 3d 2c a9 a6 bc 00 ef 8e 3d
       -0.05500246 0.06940764 -0.02034434 0.069791794
0001f0 91 ed 41 bd 4e 12 6e bd 56 b6 10 bc 18 54 2c 3d
       -0.0473457 -0.058122925 -0.008832535 0.042072386
000200 d8 4d fe 3d 14 b6 a4 bd ca a3 c1 3d 80 3f 63 3c
       0.12417191 -0.08042541 0.094550684 0.01387012
000210 94 02 65 bd 70 d7 3c bd 3e 0e b1 bd 02 f8 91 bd
       -0.05591066 -0.046103895 -0.086452946 -0.07127382
000220 50 3f 64 bd ce 8c e4 3d 30 b7 6a bc 80 a2 50 bb
       -0.055724442 0.11159669 -0.014325902 -0.0031835139
000230 9c 3e ea 3d d6 d7 b6 bd 00 0c 79 bc 66 e2 d4 3d
       0.11437723 -0.08927886 -0.015200615 0.103947446
000240 f6 88 dd 3d ac b0 17 3d 40 f7 d8 3d 3e 79 f3 3d
       0.10817139 0.03703372 0.10594034 0.118883595
000250 70 28 60 3d 08 55 aa bc 70 a9 9a 3d d4 f4 bd bd
       0.054726064 -0.0207925 0.07551849 -0.09275213
000260 80 35 e1 3c 56 b9 c7 3d 78 44 ec bc 10 4f fc bd
       0.027491331 0.09752147 -0.028841242 -0.123197675
000270 18 f5 e9 3d 08 1e 8c 3c b2 f4 81 bd b0 28 a5 bc
       0.11423701 0.017104164 -0.063455 -0.020161003
000280 30 f7 fe bc 88 fa d7 bc d0 1c 97 bc e8 37 27 bd
       -0.031123728 -0.02636458 -0.018446356 -0.0408248
000290 cc 2a a3 bd 70 03 53 3d 54 f9 11 3d 90 bf 10 bd
       -0.07967147 0.05151695 0.03563817 -0.03533894
0002a0 90 8d 4c 3d 94 51 60 bd 00 49 46 3a ac d2 df 3d
       0.049939692 -0.0547653 0.00075639784 0.10928854
0002b0 f8 30 dc 3d 34 ba c6 bd 74 31 4d 3d 6c 10 22 3d
       0.107515275 -0.09703484 0.05009599 0.039566442
0002c0 f2 f4 93 3d 60 db 93 bd e6 02 90 bd 18 64 e6 bd
       0.07224454 -0.07219577 -0.07031803 -0.1124956
0002d0 14 f9 81 3d 78 f1 d8 bc d0 53 0c 3c 70 d6 33 bc
       0.06346336 -0.026482329 0.008564904 -0.010976419
0002e0 f2 7b f4 bd 72 e9 9f bd 1a 4a e9 3d 36 48 a4 bd
       -0.11937703 -0.07808198 0.11391087 -0.08021586
0002f0 3a 7a 84 bd e2 7f b2 bd 60 bf 4a 3c 80 af 98 3b
       -0.06468625 -0.08715798 0.012374729 0.004659593
000300 a0 c0 94 3b 48 fc fa 3d 18 9f d8 3c 30 7b da bd
       0.0045395643 0.1225515 0.02644305 -0.106680274
000310 c4 57 d4 bd 50 e5 c3 bd 54 a1 5f 3d fc ea 54 3d
       -0.103683025 -0.09565222 0.054597214 0.05198191
000320 90 b8 90 bd 2e 16 c9 3d 54 9f fd bd fa 25 8d 3d
       -0.070664525 0.098186836 -0.12383905 0.06892009
000330 1e 22 ae 3d 74 04 5d 3d 2a 2b ad bd 90 d5 83 bc
       0.08502601 0.053959325 -0.084554985 -0.016093045
000340 f0 e9 bd 3d f2 89 e1 3d 40 be 86 bc 06 c2 85 3d
       0.09273136 0.11012639 -0.01644814 0.06531148
000350 c6 db c6 bd 28 77 a2 bc 98 f8 fe 3d 60 e1 5c 3d
       -0.09709887 -0.019832209 0.12449759 0.05392587
000360 a0 59 76 bd 00 f4 28 3a 9c 01 9b 3d 00 00 00 3d
       -0.060144067 0.000644505 0.07568666 0.03125
000370 68 65 8e 3d 84 ed 4e bd a0 64 ca bd c0 82 85 3b
       0.069529355 -0.05051948 -0.09882474 0.0040744245
000380 64 85 b8 3d 78 f5 8a bd d0 6a 26 3d ba 92 96 bd
       0.09009817 -0.06785101 0.040629208 -0.073522046
000390 1c e4 3f 3d 88 aa 0f 3d 74 94 1b bd 98 79 92 3c
       0.0468484 0.03507474 -0.037983373 0.017880246
0003a0 88 73 fd bc 2c 97 fe bd 90 fe 49 bd 80 8d c5 3b
       -0.030938879 -0.124311775 -0.049315035 0.006028831
0003b0 00 08 1d bd c2 84 d8 bd a0 e8 8e 3d c0 68 a4 bb
       -0.038337708 -0.105721965 0.069779634 -0.00501737
0003c0 58 19 b2 3d 50 8b 90 3c 48 f4 c6 bd 4c 93 86 bd
       0.0869624 0.017644554 -0.09714562 -0.065710634
0003d0 b8 bf e0 bc ea 51 b5 3d 0c f8 f9 bd fa c2 d3 3d
       -0.027435169 0.088535145 -0.12205514 0.10339923
0003e0 dc 78 1f bd 5a d7 d2 bd 90 e7 a7 bc 08 15 53 bd
       -0.03893362 -0.10294981 -0.02049616 -0.05153373
0003f0 f2 91 ef bd 80 da 24 bd a8 89 fc 3d 80 04 94 ba
       -0.11697759 -0.04024744 0.12330943 -0.0011292845

model.2.bias f4 [32]
000000 4c 81 bb 3d ed 79 86 bd 00 a7 6f 3a 7e 8d 8b 3d
       0.09155521 -0.06566224 0.00091420114 0.06814097
000010 31 99 c3 3d b9 a7 90 3c e6 a2 f7 3d 79 24 e9 bd
       0.09550703 0.017658101 0.12091617 -0.1138391
000020 3e 07 d2 3a e0 d1 24 3d 52 3c 2c 3d bd fb da 3c
       0.0016023887 0.040239215 0.042049713 0.026731366
000030 11 60 12 bd f8 a4 bc bd 18 8d a9 bc 75 71 db 3d
       -0.035736147 -0.09211153 -0.020697162 0.107149996
000040 3a 48 97 3c 60 d1 95 3d da 24 5d bd 14 0e 9e bd
       0.018467057 0.07315326 -0.053990223 -0.07717529
000050 ca dd 57 bb b3 06 97 bd c0 6d 77 bd 70 ab 4a bc
       -0.0032938593 -0.07374325 -0.0604074 -0.012369975
000060 14 b5 d1 bd fc 13 eb bd 25 d9 96 bd 58 3b ff bd
       -0.10239616 -0.11478421 -0.07365636 -0.12462491
000070 96 ca de 3d 20 ca 47 bd e8 59 c7 3c e4 8f d6 bd
       0.10878484 -0.048776746 0.024334863 -0.10476664

model.4.weight f4 [1, 32]
000000 f8 51 97 bd 3a e5 6d 3c 04 53 d3 3c 2b bd f5 3c
       -0.07388681 0.014519984 0.02579642 0.029997429
000010 e6 d0 2b bd 3d 1c 94 3d bc 5e 88 3d 74 21 93 bd
       -0.041947268 0.072319485 0.06658694 -0.07184115
000020 92 0e bd 3d 2f 50 2f 3e 11 0a 3d 3d b2 ea ae bd
       0.09231295 0.17120431 0.04615218 -0.08540858
000030 37 35 d6 bc 6b 92 0b 3e cb 27 36 3d a9 ee 20 be
       -0.026148422 0.13630073 0.044471543 -0.15716042
000040 59 1f e0 bd 80 b0 fa 3d 43 ca e9 bd 29 3d a9 3d
       -0.10943479 0.12240696 -0.114155315 0.082636185
000050 87 61 0b 3e 7d 5e 80 3d 29 b6 88 bc 4a 87 1d be
       0.13611422 0.06268022 -0.016688423 -0.1538364
000060 82 be 16 be a0 84 6d 3d a1 69 16 be 27 c9 fe bd
       -0.1472111 0.05798781 -0.14688732 -0.124407105
000070 fe 9a 06 bc 12 5f 1a bd 80 85 e7 3d 1d 99 ac bd
       -0.008215664 -0.037688322 0.1130476 -0.084276415
