data/model.pth (torch, 24884 bytes, 5 tensors)

model.0.weight f4 [64, 54]
000000 77 91 67 bc 46 c8 b2 bd 27 46 e5 3d c4 36 43 3c
       -0.014133803 -0.087296054 0.11195021 0.011914913
000010 1c 22 da 3d 8c c8 09 bc 24 32 b3 3d 1d 71 0b bd
       0.10651037 -0.0084096305 0.08749798 -0.03404342
000020 80 11 15 3d 8a 2d b2 ba 49 d2 3e 3c 30 3b 3a 3c
       0.036393642 -0.0013593894 0.011646816 0.01136665
000030 72 d0 0c 3d 69 42 0e 3e 11 09 52 bd 5a 12 da 3d
       0.034378476 0.13892521 -0.051278178 0.106480315
000040 b4 63 95 3c b7 81 cf 3c 1a 35 c6 bd 94 9c cc 3c
       0.018236019 0.025330408 -0.09678097 0.024977006
000050 f5 44 5f bd aa d4 51 bd 0b 52 f9 3d 1f d2 fa 3d
       -0.054509122 -0.051228203 0.121738516 0.12247109
000060 02 91 fe bc aa 16 5b 3d 21 05 08 3e 25 8d b8 3d
       -0.031075004 0.05348841 0.13283207 0.09011296
000070 cf c8 c4 3d f5 5c e8 3c e4 8d f1 3d da 7a 4b 3b
       0.09608614 0.028364638 0.117946416 0.0031048567
000080 18 51 0e be ed 99 80 bd 9c 37 8c 3d c8 11 ab 3d
       -0.13898122 -0.06279359 0.06846544 0.08353001
000090 ce ca b7 3d 17 44 97 3d 96 c4 7f bd 60 ea d2 bd
       0.08974229 0.07386034 -0.06244334 -0.1029861
0000a0 f1 d3 16 bd cf dc 33 bc c1 d4 02 3e c3 d0 23 bd
       -0.036823217 -0.010977938 0.12776472 -0.039994013
0000b0 22 84 05 be 9d b7 a0 bd 7f 38 ed bc d6 72 ea 3b
       -0.13038686 -0.078475215 -0.028957603 0.007154803
0000c0 6b 8f 12 bd 48 46 dd bd 2a 64 14 bd ca db c0 3d
       -0.035781305 -0.10804421 -0.036228336 0.094169214
0000d0 02 c3 d8 3d ce 7d 8e 3d 07 67 17 bd 68 66 d4 bd
       0.1058407 0.06957589 -0.03696349 -0.10371095
0000e0 8a 1e 55 3c 9b 87 01 be 51 aa 8a 3d b9 c2 e4 bc
       0.013007769 -0.12649386 0.067707665 -0.027924882
0000f0 7e 97 3c 3d d9 a5 d5 3b b3 19 9e 3d 14 5a 0d 3e
       0.04604291 0.0065200147 0.077197455 0.13803893
000100 6c 9e 12 3c 63 90 7b 3d bb 04 a4 bd 61 34 14 3d
       0.0089489035 0.061416995 -0.08008715 0.036182765
000110 cf a1 b9 3d cb 43 14 bd 62 22 0d be 36 8d 4f 3d
       0.09064066 -0.036197465 -0.13782647 0.05067178
000120 15 98 e1 bd b9 70 84 3d 08 a0 9d bd dc 2f 7c 3c
       -0.110153355 0.06466813 -0.07696539 0.01539227
000130 e9 8a c3 bd 35 12 54 3d e0 85 03 3e 5a 3f ed 3d
       -0.095479794 0.051775176 0.12844038 0.11584349
000140 43 4b 87 3d 45 51 e4 bd b5 cf 8f 3c ba 45 ae 3d
       0.06606152 -0.111483134 0.017555097 0.08509393
000150 c3 60 d1 3d 70 a6 ef bd c6 54 00 bd 42 25 d8 3d
       0.10223534 -0.11701667 -0.031330846 0.10553981
000160 a8 58 ac bd 54 12 47 3d ec 2d f3 3d 05 01 aa bc
       -0.08415347 0.048601463 0.11873993 -0.02075244
000170 fd 1e 6b 3d 47 02 11 bd de 33 03 3e ef e2 8a 3c
       0.0574026 -0.035402562 0.12812755 0.016953913
000180 56 d0 99 3d f5 5f 9c 3d 59 bc 81 3d 25 e0 f2 3d
       0.0751044 0.0763549 0.063347526 0.118591584
000190 cb f4 3e 3c ec 83 62 3d 5a 46 8f 3d 9d cf de 3d
       0.011655043 0.05530159 0.0699584 0.10879443
0001a0 21 71 58 3d 7a d5 dc 3d 5a a1 d3 bd 45 e8 cb 3d
       0.052842263 0.10782905 -0.1033351 0.09956411
0001b0 1b e1 f0 3d 21 dd 71 3c ac 26 02 bd 20 67 88 ba
       0.117616855 0.014762194 -0.03177516 -0.001040671
0001c0 e0 b2 01 3e 33 5d f7 3d 71 57 70 3d ca d5 02 be
       0.12665892 0.12078323 0.05867714 -0.12776867
0001d0 aa 3e 51 3d e1 4c bf 3d 13 d0 f7 bd 4e f3 d4 bc
       0.05108515 0.09340835 -0.12100234 -0.025994923
0001e0 2e 3a b4 3d 47 49 cd bd 3c 9b 80 bd ad 63 d3 bd
       0.088001594 -0.10023742 -0.062796086 -0.10321746
0001f0 66 7a 88 3d 1b f1 f3 bd c4 6c c2 bd a0 d4 52 3d
       0.06663971 -0.119112216 -0.09493402 0.051472306
000200 d0 78 07 3e 72 f0 d8 bd f1 2f ca 3c a8 b5 ce 3d
       0.1322968 -0.10592736 0.024681063 0.10093242
000210 90 40 e2 3d a8 a0 02 3e 88 10 d1 3d 44 86 a1 bd
       0.110474706 0.12756598 0.10208231 -0.07886937
000220 a0 58 ea 3d 4c b9 91 3a 97 18 52 3d 4e e8 b2 bd
       0.11442685 0.0011117845 0.051292982 -0.08735715
000230 0d d3 b2 bd c6 67 75 bd 05 08 05 be 17 41 32 bb
       -0.08731661 -0.05991342 -0.1299134 -0.002719944
000240 f8 29 d5 bd 12 af c9 3d b1 c0 47 bd da ac 5c bd
       -0.104083955 0.09847845 -0.04876775 -0.05387578
000250 12 44 c7 3d b4 cd ec 3c 1d 70 37 3d a8 04 88 3d
       0.0972978 0.02890668 0.044784654 0.06641513
000260 1b 06 f2 3d 83 69 df bd 3d c8 00 3e c0 02 fb bd
       0.11817571 -0.10908797 0.12576385 -0.12256384
000270 42 8c c4 3d 6e 02 83 bd 08 ac 86 bd c1 05 c4 3d
       0.095970646 -0.06396948 -0.06575781 0.0957141
000280 92 d2 9c bd 75 65 9a bc 83 d6 08 bd be d3 ca ba
       -0.076573506 -0.018847207 -0.0334077 -0.0015474481
000290 a3 d5 ac 3d 20 54 ff bd 84 97 a3 3d 3e bd 78 bd
       0.084391855 -0.124672174 0.07987884 -0.06072735
0002a0 8a 9f 65 3d 58 ef 3a 3d 0b 68 2e 3d 8c e6 10 3d
       0.05606035 0.045638412 0.04257969 0.035376117
0002b0 3a f0 d0 3d cb b0 bb bd 12 27 e8 3d 1d 99 4e 3b
       0.102020696 -0.0916458 0.11335577 0.0031524368
0002c0 3d ac ba bd 4c 0a 40 bd d3 4e c3 3d 2f d0 88 bd
       -0.09114883 -0.04688482 0.09536519 -0.06680333
0002d0 b4 97 a9 bd 57 f7 d2 3d 5f 77 6a 3d b0 73 8f bd
       -0.08280888 0.103010826 0.057242747 -0.070044875
0002e0 34 e7 9f bd 97 2d a1 bd 6f b9 c4 3d 33 01 f3 bd
       -0.0780777 -0.07870024 0.09605681 -0.11865463
0002f0 32 36 ce 3d 85 60 da bd 4a 27 44 3c 71 bb f1 bd
       0.10068931 -0.10662941 0.011972258 -0.1180333
000300 3e 9d 9b bd a7 44 89 bc 26 ab d5 3d ca df fc bd
       -0.07598351 -0.016756369 0.104330346 -0.12347372
000310 23 35 ac 3c 39 88 e9 bc 19 f3 4b bd d4 08 bd bd
       0.021021431 -0.028507339 -0.049792383 -0.092301995
000320 38 43 05 3e d1 3b b4 bd fe f3 1a bd 2b 62 94 bd
       0.13013923 -0.088004716 -0.037830345 -0.072452866
000330 4c 9b e7 3d 46 84 e7 3d 99 ea e7 3b 09 f3 86 bd
       0.113089174 0.11304526 0.0070775268 -0.06589324
000340 c9 17 ef 3c db e4 8d bd 20 e5 f2 bd 35 de 30 3d
       0.029186146 -0.06928416 -0.118601084 0.043180663
000350 ac 1a a7 3d 58 a9 9f 3d 7a 6d f1 3d 9c df fa bd
       0.08159384 0.07795972 0.11788459 -0.12249681
000360 36 0d be bd 13 63 1e bd 47 2e 0c bd 91 f4 88 bd
       -0.092798635 -0.038668703 -0.03422382 -0.06687272
000370 74 b9 6f 3d 2d a3 9b bd 2b a0 9d 3d 88 1d 30 3b
       0.05852647 -0.07599483 0.07696565 0.002687307
000380 a0 e0 e0 bd 18 f1 fa bd 9d 42 88 bd 60 d8 d0 3c
       -0.10980344 -0.12253016 -0.066533305 0.0254938
000390 1a e7 0b be cf 12 96 3c 8e e1 40 bd 7f 6c 99 3d
       -0.13662377 0.018319516 -0.047090106 0.07491397
0003a0 10 3d 2d 3d 23 cd 85 3d a1 41 be bc 92 e4 6a bd
       0.042294562 0.06533267 -0.023224654 -0.057346888
0003b0 85 a6 42 bd 90 4c 06 be 1e e5 4f bc 9d 00 04 3c
       -0.047522087 -0.13115144 -0.012688903 0.008056787
0003c0 c3 9b 58 3d f8 b1 b4 3d 27 bb 9d bd 3c c0 c6 3d
       0.05288292 0.08823007 -0.07701712 0.097046345
0003d0 d3 65 dd bc 6d 90 7d 3d 01 1b f9 bd b8 67 98 3d
       -0.027026093 0.061905313 -0.12163354 0.07441658
0003e0 ef 7d 26 bc f7 05 14 be 2c 17 17 3d 4b f7 cf bd
       -0.010161861 -0.144554 0.036887333 -0.10154589
0003f0 1b e1 bb bd 93 d4 79 bd a0 cb 8f bc 3b 84 c1 3d
       -0.09173795 -0.060993742 -0.01755315 0.09449049

model.0.bias f4 [64]
000000 c9 57 ec 3c 5b ad 16 bc 6a 8a 92 3d b3 87 8c bd
       0.028850453 -0.009196605 0.07155307 -0.0686182
000010 25 2e a3 bb 23 78 7c bd 5c b3 b7 bd 4d fb b3 3d
       -0.004979866 -0.06163801 -0.08969757 0.08788166
000020 35 51 12 3d 76 80 37 bd 5c e7 f1 bd ba c5 a6 bd
       0.035721976 -0.044800244 -0.118117064 -0.08143182
000030 47 a1 3e 3c 7b a4 f2 3d ca d7 b8 3c f9 75 fd bd
       0.011635131 0.118477784 0.022563834 -0.12376017
000040 6d 80 40 3d a9 58 15 bd d7 16 c4 bd 52 73 e3 bd
       0.046997476 -0.036461506 -0.09574669 -0.1110598
000050 c3 cb 2c 3d 88 af 32 3d 3b 46 2f 3d ec f1 8b 3c
       0.04218651 0.04362443 0.042791586 0.01708313
000060 fa 7c df bd f6 b3 9f 3d 20 ae 2c 3d 76 2a f0 3d
       -0.10912509 0.07797997 0.042158246 0.11726849
000070 77 39 97 bd 6c b4 f6 bc c9 75 ba bd dd f6 5a 3d
       -0.073840074 -0.030115329 -0.09104497 0.053458083
000080 0f 75 08 bc b6 f6 98 bd 04 7e ce bd b3 4f fe 3d
       -0.00832869 -0.074689314 -0.10082629 0.12417545
000090 41 43 94 bc c6 b2 dc 3d 0d e7 2e 3d 5b a6 db bd
       -0.018098475 0.10776286 0.042700816 -0.10725089
0000a0 c9 45 db bd c3 45 09 be 41 d0 6c bd 07 bf 1e 3d
       -0.1070667 -0.13405518 -0.057815794 0.038756397
0000b0 30 59 95 3d 53 ad b0 bd c0 69 cd 3c 16 f4 7e bd
       0.07292402 -0.08626809 0.02507484 -0.062244497
0000c0 f7 72 03 3e a5 e1 8d bd 0f 0a b5 bd 34 ef ab 3d
       0.12836824 -0.06927804 -0.08839809 0.08395234
0000d0 67 1a 72 bd 61 1d 25 3c 51 4c 2a bd 49 dd 36 bd
       -0.05910721 0.010077805 -0.041576687 -0.044644628
0000e0 ea a5 ee bd ee fb 7f 3d e7 0a 06 3b 7a 26 02 be
       -0.11652739 0.06249612 0.0020453276 -0.1270999
0000f0 33 47 02 be 7d a7 c3 bd bf e5 ba bd d0 00 c7 3d
       -0.12722473 -0.0955343 -0.09125852 0.09716952

model.2.weight f4 [32, 64]
000000 4c 19 5d 3d 80 98 07 bc d0 93 ad bc c0 b2 65 bb
       0.053979203 -0.008276105 -0.021188647 -0.003504917
000010 42 d7 dd bd 52 5f bf bd dc ae d0 3d 6c 93 ae 3d
       -0.10832073 -0.09344353 0.10189602 0.08524212
000020 86 80 f1 bd e8 25 bd 3d 48 d8 9c 3c c8 67 a4 bd
       -0.11792092 0.09235746 0.0191461 -0.08027607
000030 06 8e b2 bd a4 d6 6c bd bc 7e 0d bd 30 6e 1f 3c
       -0.08718495 -0.057821885 -0.03454469 0.009730861
000040 a0 25 47 bd f4 b5 fc 3d d8 10 ea bd c0 5d 5e bc
       -0.048619866 0.12339392 -0.11428994 -0.013572156
000050 70 0b 35 bc 76 d5 cc bd fc 88 b4 3d a8 55 87 3d
       -0.01105009 -0.10001652 0.0881519 0.066081345
000060 18 3d 4e bd b2 41 86 bd d8 c9 f6 bd e4 bd 6f bd
       -0.050351232 -0.06555499 -0.120502174 -0.058530703
000070 c0 e3 e2 bc 58 2c e7 3c 36 87 dd 3d c4 da 7e bd
       -0.02769649 0.028219387 0.10816805 -0.06222035
000080 70 ae fc 3c be 3f eb bd ae 94 d0 bd 84 95 aa bd
       0.030844897 -0.11486767 -0.101846084 -0.08329299
000090 c8 33 df bd 08 1d c3 bd f8 65 f2 3c f0 8d 2c bd
       -0.10898548 -0.09527022 0.029589638 -0.04212755
0000a0 14 bd 3e 3d 2c fd f4 3d 5e 82 f3 3d 64 5e 80 bd
       0.046567038 0.11962351 0.118901 -0.062680036
0000b0 54 b2 1e 3d 94 e2 78 bd a6 28 b8 bd 2c a5 2c 3d
       0.038744286 -0.060762957 -0.08992128 0.042149708
0000c0 ec 18 b1 bd 20 17 da bb 58 49 47 bd 40 4a 3d 3d
       -0.086473316 -0.0066555887 -0.04865393 0.04621339
0000d0 48 fa cf 3c a8 16 58 3d b4 9e 77 3d 84 01 95 3d
       0.025387898 0.05275598 0.060454085 0.0727568
0000e0 0a 9b 94 bd 0c e7 8e 3d c0 54 22 bb 3a dc c9 bd
       -0.07256134 0.069776624 -0.0024769753 -0.09856458
0000f0 78 5d cb 3d a6 ef 94 3d 38 86 c8 3d 6c 15 5d bd
       0.09929937 0.07272272 0.09791225 -0.053975508
000100 00 5e 90 bd 90 3d ed 3d 32 c4 95 bd e8 94 86 bc
       -0.07049179 0.11584008 -0.07312812 -0.016428426
000110 3c 19 6b bd e0 d9 22 bd 3a 45 90 3d 54 72 ef bd
       -0.057397112 -0.039758563 0.07044454 -0.11691728
000120 86 99 cd bd d4 d7 f4 3d 80 6a fc ba 00 32 a8 3c
       -0.10039048 0.119552284 -0.0019257814 0.020531654
000130 00 cb 90 bc fc a9 f6 bd 92 d9 f8 bd 86 a4 e4 3d
       -0.017674923 -0.12044141 -0.12150873 0.11164193
000140 f2 6b e0 3d 98 e8 39 bd 1c 1d 75 3d 70 8b 8f 3c
       0.10958089 -0.045387834 0.059842214 0.017522544
000150 7e 8a cc 3d 72 20 d9 bd e8 c1 f7 3d de a6 d2 3d
       0.09987353 -0.106018916 0.120975316 0.10285734
000160 64 0a d9 bd 58 9f 87 3d 90 6c 35 3c 44 e6 25 bd
       -0.10597685 0.06622189 0.011073247 -0.0405028
000170 0c 10 e5 3d 46 48 ad bd 2a ba c2 bd 64 f9 71 bd
       0.11184701 -0.08461051 -0.09508164 -0.059075728
000180 64 cf b5 3d 80 89 fb bb 6e b9 97 bd 60 b5 e4 bb
       0.08877447 -0.0076763034 -0.07408415 -0.0069796294
000190 44 fe c9 3d 36 25 8a bd 20 a4 53 3c a4 9b 4b 3d
       0.098629504 -0.06745379 0.012917548 0.049708977
0001a0 88 34 f5 bd 2a 89 94 bd a4 aa 82 3d 74 68 aa 3d
       -0.1197291 -0.072527245 0.06380203 0.08320704
0001b0 f0 23 a1 bd 5c 84 59 bd 62 ca 92 3d 50 0e fb bc
       -0.07868183 -0.053104743 0.07167508 -0.030646473
0001c0 f0 52 e4 3d 80 d6 91 3c 34 7b 5e bd 28 d6 8b bd
       0.111486316 0.017802477 -0.054316714 -0.068279564
0001d0 50 78 85 3c 44 81 21 bd 18 6f 99 bc cc 50 56 3d
       0.016292721 -0.039429918 -0.018729731 0.052323148
0001e0 46 91 fa 3d 22 ea ec 3d 34 0c 85 bd cc 88 6a 3d
       0.1223474 0.11568095 -0.06496468 0.057259366
0001f0 18 d6 f7 bd 88 c7 b9 bc fc 6f 2a bd d0 83 d4 bd
       -0.12101382 -0.022678152 -0.041610703 -0.10376704
000200 a2 26 8c bc 34 56 d0 bc 5b 5f 47 bb 04 5b d2 bd
       -0.017108265 -0.02543173 -0.0030421827 -0.10271266
000210 58 87 d6 bc 26 1c e7 bd a4 50 45 3d 44 77 0e 3d
       -0.026187584 -0.11284666 0.048172608 0.03478171
000220 29 30 86 bd 7d b4 37 bc c9 75 18 3b 35 c4 d9 3d
       -0.065521546 -0.011212465 0.0023263565 0.10633127
000230 80 6b 3f bc 60 c6 fb bb c4 fe 2b bd 58 e2 f9 bd
       -0.011683345 -0.0076835603 -0.04199101 -0.12201375
000240 a0 1f 69 3d f0 b1 7b bd 36 b3 00 3d 09 13 a6 bd
       0.056914926 -0.06144899 0.03142091 -0.081090994
000250 d8 02 fe bd 36 90 b5 bc e7 fb 6a 3c 13 a8 22 bd
       -0.12402886 -0.022163492 0.014342285 -0.03971107
000260 b3 0f 01 bd 70 51 f5 3d ad c9 c8 3c c0 61 3a bd
       -0.031509113 0.119784236 0.024510229 -0.045503378
000270 8d 81 ed 3d d8 d1 98 3d 49 19 f9 3b 5b 5f f2 3d
       0.115969755 0.074618995 0.007601891 0.11834594
000280 48 42 9d 3d 9a 03 16 bd 6c 3c e7 bd 18 9d 9d bc
       0.07678658 -0.03662453 -0.112908214 -0.019239947
000290 38 4d 61 3d 11 e0 fe bd 12 17 3e 3d 56 0f 6b 3b
       0.055005282 -0.12445081 0.04640872 0.0035867295
0002a0 0c 8d 3f 3d c8 04 08 3d bd cf a6 3d 98 cd be bc
       0.046765372 0.033207685 0.08145092 -0.023291394
0002b0 ba fc bb bd f9 f4 60 3d 66 93 a7 bd c0 34 43 3b
       -0.09179063 0.054921124 -0.08182411 0.002978608
0002c0 c2 ea a9 3d 9a 4a a8 3b 3c fe 05 3d bb 23 11 bd
       0.082967296 0.0051358463 0.03271316 -0.035434466
0002d0 76 e0 db 3d cb af ab bd b5 11 f9 3d 7d fa b7 bd
       0.10736172 -0.08383139 0.121615805 -0.08983324
0002e0 a6 bc 03 3d ea 57 ac 3d 80 10 56 bd ac 85 8a bd
       0.03216233 0.08415206 -0.05226183 -0.06763777
0002f0 ac cb b6 3d be 64 37 3d 2e d1 d2 3c e5 bb 8a bd
       0.08925566 0.04477381 0.02573451 -0.06774119
000300 64 c0 51 3d cc 0b ba 3d c7 c7 b2 bc 02 65 8f bd
       0.05120887 0.09084281 -0.021823777 -0.070016876
000310 a3 e5 cd 3d 08 05 f9 3d f7 38 ed bd 1d 91 ae 3d
       0.10053565 0.12159163 -0.11583131 0.08523772
000320 d4 59 c6 bd 22 9a 6a 3d 87 d7 79 3c 88 19 05 bd
       -0.09685102 0.0572759 0.01524914 -0.03249505
000330 83 80 97 bd eb d1 16 bd 84 06 bf 3d 54 b3 39 3d
       -0.073975585 -0.036821287 0.09327415 0.045337036
000340 db f7 0f 3e fc 9d bf bd 70 79 e9 b9 6d e4 f2 3d
       0.14059393 -0.09356305 -0.000445317 0.11859975
000350 8a 7f ed bd d1 45 2f 3d 9c 4a d5 3d 9a 19 48 3c
       -0.11596592 0.04279119 0.10414621 0.012213135
000360 b6 2b 97 3d 4a 43 5d bd d4 9f c7 3d 59 34 b8 3d
       0.07381384 -0.05401925 0.09747282 0.089943595
000370 09 e5 20 3d 70 37 ed 3c 7f 34 cd 3d 90 7a 96 bd
       0.039280925 0.028957099 0.100197785 -0.07347596
000380 92 01 fb 3d ea e3 81 3d ac 71 9a bd d8 4b fe 3d
       0.12256159 0.06342299 -0.075412124 0.1241681
000390 6e 94 f6 bd 14 86 6d 3d f5 f1 83 3d 6d 47 30 bd
       -0.120400295 0.057989195 0.06442634 -0.043036867
0003a0 0e 81 9b 3d 28 52 cc 3d 22 37 88 3c 20 89 d9 bd
       0.075929746 0.099766076 0.016627852 -0.10621858
0003b0 e0 32 1f bd 24 70 83 bd a2 61 f5 bd 26 9c ff 3d
       -0.038866878 -0.064178735 -0.119815126 0.12480955
0003c0 26 b7 da 3c 8c be 4f 3d 5c 1a 27 bd 1b 09 63 bd
       0.02669866 0.05071883 -0.040796623 -0.055428606
0003d0 08 58 23 bd b4 f8 e9 3d ce 23 95 3d 69 45 fd bb
       -0.039878875 0.114243895 0.0728222 -0.0077292216
0003e0 32 79 75 bd f6 61 e9 3c 40 83 34 bd 70 3e d7 3d
       -0.059930034 0.028489094 -0.044070482 0.10509956
0003f0 66 6b 8b bd c3 a7 a9 3d d9 c2 dd 3d 0f 49 b3 bc
       -0.06807594 0.08283951 0.1082818 -0.021885423

model.2.bias f4 [32]
000000 4c cf 80 bd 00 18 28 ba 6e 1c 93 bc da dc b1 bd
       -0.06289539 -0.00064122677 -0.017957892 -0.08684702
000010 96 d8 f2 3d f3 fe 58 3d ff 58 e6 3d aa 7e b5 bd
       0.11857717 0.052977514 0.112474434 -0.0886205
000020 40 ab e2 bc 94 a9 7a 3d 24 de c1 bd 38 9e 88 3d
       -0.027669549 0.06119688 -0.09466198 0.06670803
000030 cc 72 b9 bc ad 5c e4 bc 4f 82 d6 bd 0c c7 67 bd
       -0.022637747 -0.027876223 -0.10474073 -0.05658631
000040 7c 79 d6 bd d8 17 9c bc 4d 48 f4 3d 50 d6 ce bc
       -0.1047239 -0.019054338 0.11927853 -0.025248677
000050 2c fe 66 3d 00 75 6c bd 06 5a fe bd d7 e5 85 bd
       0.05639474 -0.057728767 -0.12419514 -0.06537979
000060 3c 0c 58 bd 2e 37 49 3d 2a e4 83 3d f4 e9 54 bd
       -0.052746043 0.04912489 0.06440003 -0.051980928
000070 10 44 ea 3d 96 72 92 3d 20 10 5b bc 1d 33 8b bd
       0.11438763 0.07150762 -0.013370544 -0.067968585

model.4.weight f4 [1, 32]
000000 96 06 27 3e ca f7 eb bd d5 e9 cc 3c b1 70 a1 3d
       0.16311106 -0.115218714 0.025013844 0.07882822
000010 d7 d3 21 be 9b a3 be bd 9f b8 e0 3c 8b c1 02 bc
       -0.15803467 -0.09308549 0.027431784 -0.007980715
000020 5b ec 90 3d d0 aa 23 3e 93 ee 1f be 83 c1 00 be
       0.07076331 0.15983129 -0.15618353 -0.12573819
000030 53 1a 17 be 56 0d ca bd 5e 5b c4 bc 13 d0 1f 3d
       -0.14756136 -0.09865825 -0.023969349 0.039016794
000040 62 90 d2 3d 43 95 a7 bd 4a c1 01 3d 92 8f fb 3c
       0.10281445 -0.08182766 0.031678475 0.030708108
000050 71 f8 20 be 6a 61 99 bd c2 0d a8 3d 8b a6 38 3d
       -0.15719773 -0.074892834 0.08205749 0.045080703
000060 08 19 b5 3c ff d1 a0 3d d4 bd 20 3e 1a a9 c3 3c
       0.022106662 0.078525536 0.15697414 0.023884345
000070 cf a9 4b ba 9f 44 ee bd 77 9f eb 3d 82 17 17 be
       -0.0007769139 -0.11634182 0.11505025 -0.14755061
