data/model.pth (torch, 25396 bytes, 5 tensors)

model.0.weight f4 [64, 56]
0	0x3db33c78	0.08751768
1	0xbdd6c124	-0.104860574
2	0x3cf6f60c	0.030146621
3	0xbd0ebd36	-0.034848414
4	0xbdb1af81	-0.08676053
5	0xbd01861e	-0.031622045
6	0x3d243596	0.040090166
7	0x3ce9457c	0.028475516
8	0x3dc7560f	0.09733211
9	0xbdc25ae3	-0.094899915
10	0xbdada95a	-0.08479567
11	0xbe04f2b2	-0.12983206
12	0xbd64c1bb	-0.05584882
13	0xbe014a1c	-0.12625927
14	0xbe00c4a5	-0.12575014
15	0x3dc918ae	0.098191604
16	0x3d87d406	0.06632237
17	0x3b659ce7	0.0035036148
18	0xbda77834	-0.08177224
19	0xbe04692d	-0.12930746
20	0x3dacb384	0.084326774
21	0xbdd779a0	-0.10521245
22	0xbde249c4	-0.11049226
23	0xbce51aea	-0.027966935
24	0x3c1644a6	0.0091716405
25	0xbd7a52b7	-0.06111404
26	0x3de72960	0.112871885
27	0x3c95ed1e	0.018301543
28	0xbdf96281	-0.12176991
29	0xbddfc8c0	-0.10926962
30	0xbd8bdf4d	-0.068297006
31	0xbd86abe4	-0.06575754
32	0xbda2fa5a	-0.07957907
33	0xbd910c04	-0.0708237
34	0xbdc2f39d	-0.09519122
35	0xbd94d6fe	-0.07267569
36	0x3d4670a6	0.048447274
37	0xbdb4e061	-0.088318594
38	0x3d15d16d	0.036576677
39	0x3d06578b	0.03279833
40	0xbdb34ca1	-0.0875485
41	0x3c0b7d60	0.008513778
42	0x3cd8001e	0.026367243
43	0xbc01d9e3	-0.007925483
44	0x3d63b93a	0.055596568
45	0xbd91b537	-0.07114642
46	0x3d398d31	0.045300666
47	0xbd773653	-0.060354542
48	0x3dcc47ed	0.09974656
49	0xbd979a97	-0.074025325
50	0x3db33cb8	0.087518156
51	0xbda2c5c3	-0.07947876
52	0x3d31d09e	0.043411843
53	0xbd5a205c	-0.053253517
54	0xbd6abd52	-0.057309456
55	0x3d322e54	0.043501213
56	0xbd7e7057	-0.062118854
57	0x3d08d313	0.03340442
58	0xbdf93483	-0.12168219
59	0x3cb4d395	0.022073546
60	0x3dcc09a1	0.09962774
61	0x3ce5ba5e	0.028042968
62	0x3e00547f	0.12532233
63	0xbdd2a3e1	-0.10285164
64	0xbdae4dd4	-0.08510938
65	0x3c3b35d2	0.011426406
66	0xbddaafb2	-0.106780425
67	0xbca354d2	-0.019937906
68	0x3d808d0e	0.06276904
69	0x3cc4ee86	0.024039518
70	0xbc8786f4	-0.016543843
71	0x3d70e598	0.058812708
72	0x3da89cd0	0.082330346
73	0xbca719c4	-0.020398028
74	0x3d8b11ee	0.06790529
75	0xbdd20e0a	-0.10256584
76	0xbdc48476	-0.095955774
77	0xbb23d660	-0.0024999604
78	0xbd431c05	-0.047634143
79	0xbd881900	-0.06645393
80	0x3dbc607e	0.09198092
81	0x3befd00b	0.007318502
82	0x3e007224	0.12543541
83	0x3d9f5819	0.07780475
84	0xbc17ec53	-0.009272653
85	0xbc96de5b	-0.018416574
86	0x3dcc65a8	0.09980327
87	0xbd8103e0	-0.06299567
88	0xbcbf515c	-0.023354225
89	0x3df5fe06	0.12011342
90	0x3da8cdec	0.082424015
91	0xbdd89bd9	-0.105766006
92	0xbd9e7156	-0.07736461
93	0x3c149348	0.009068318
94	0x3d1f5435	0.038898665
95	0xbdd30be7	-0.103050046
96	0xbcb71254	-0.022347607
97	0x3dfd1f26	0.12359457
98	0xbd07bb05	-0.03313734
99	0xbde41293	-0.11136355
100	0xbd50cf2c	-0.050978824
101	0x3dfc5220	0.123203516
102	0xbc957aa2	-0.018246952
103	0x3a223f9a	0.0006189287
104	0x3c9ed899	0.019390391
105	0xbb4d6762	-0.0031342139
106	0x3de29f84	0.110655814
107	0xbd717c2a	-0.058956303
108	0x3e002aa7	0.1251627
109	0xbdfa985c	-0.122360915
110	0x3d805e5c	0.062679976
111	0xbd8452c3	-0.06461098
112	0xbd6bc2a7	-0.05755868
113	0x3c538096	0.012909075
114	0x3db1ff39	0.08691258
115	0x3cb76c32	0.022390459
116	0x3d38951b	0.045064073
117	0x3d9d2ca8	0.07674533
118	0x3ddb2553	0.107004784
119	0x3d8b2cc7	0.0679565
120	0x3d77e637	0.060522284
121	0x3d3b7a4a	0.04577092
122	0x3df2f7e2	0.11863686
123	0x3cd3bd0e	0.025846984
124	0xbd7cc7bb	-0.061713915
125	0x3d9afdfd	0.07567976
126	0xbd8c13c7	-0.0683971
127	0x3d1fb502	0.038990982
128	0xbdf44a5a	-0.11928244
129	0xbbae00f7	-0.0053101736
130	0x3dc6a488	0.096993506
131	0x3d2bcd50	0.041943848
132	0xbdfdb725	-0.12388448
133	0x3bb3da4c	0.0054886695
134	0x3c96dc40	0.01841557
135	0xbdd265d1	-0.10273326
136	0x3d584308	0.0527983
137	0x3dac030e	0.0839902
138	0x3d600e81	0.054701332
139	0xba2af5a2	-0.00065215875
140	0x3d7e454c	0.062077805
141	0xbd9bd9b1	-0.07609881
142	0xbdb7645d	-0.0895469
143	0xbda3827d	-0.07983873
144	0xbd88f828	-0.06687957
145	0x3d5ddda8	0.054166466
146	0xbdbc4a69	-0.0919388
147	0xbd786045	-0.060638685
148	0xbdba5a46	-0.090992495
149	0x3dc6c655	0.097057976
150	0x3d9c7347	0.07639175
151	0x3dd2099a	0.102557376
152	0x3dae55c3	0.085124515
153	0xbdea423d	-0.11438415
154	0xbe06771d	-0.13131376
155	0xbdeee16c	-0.116640896
156	0xbde5d572	-0.11222352
157	0x3d90f191	0.07077325
158	0x3d0eb010	0.034835875
159	0x3d666231	0.056245986
160	0x3d9a19c3	0.07524445
161	0xbc8062f4	-0.015672185
162	0x3da92481	0.08258916
163	0xbcae6e35	-0.021292785
164	0xbca570ec	-0.020195447
165	0x3adc91e3	0.0016828146
166	0x3dcbdcfb	0.09954258
167	0xbd87b78f	-0.06626808
168	0xbdf77246	-0.12082343
169	0xbda5ac18	-0.08089465
170	0xbd550ef1	-0.052016202
171	0x3d5bc901	0.05365849
172	0x3dec2190	0.11529839
173	0x3c6c049e	0.014405398
174	0xbd8c887f	-0.06861972
175	0xbb94e131	-0.0045434465
176	0x3d89629c	0.06708261
177	0xbc017d59	-0.00790342
178	0x3bc09056	0.005876581
179	0x3d6f7e4c	0.058470055
180	0xbda39bb8	-0.07988685
181	0xbdc5b5d9	-0.09653825
182	0x3d0c6ef2	0.034285493
183	0x3db3ec45	0.08785299
184	0x3deb19b2	0.1147951
185	0x3e01deef	0.12682699
186	0x3c19c81d	0.00938609
187	0xbdac2b2b	-0.08406671
188	0xbcec2999	-0.028828429
189	0xbe029557	-0.12752281
190	0xbcaaddd0	-0.020857722
191	0xbd9b71e9	-0.07590086
192	0xbb9c4a36	-0.004769589
193	0xbe0180d9	-0.12646808
194	0x3dcdb5e4	0.100444585
195	0x3dca58ac	0.09880194
196	0x3d12f357	0.0358766
197	0x3deb2299	0.11481208
198	0x3d9eb221	0.07748819
199	0x3c3b539f	0.011433511
200	0xbc8e6eaf	-0.017386762
201	0x3dbc96b9	0.092084356
202	0xbdb39dce	-0.08770333
203	0x3d0a0327	0.033694413
204	0x3da7e013	0.08197036
205	0x3dbcdc2d	0.09221683
206	0x3d1cc024	0.038269177
207	0x3dccde74	0.10003367
208	0xbde7decc	-0.11321792
209	0x3e08ae17	0.1334766
210	0xbcf8fb9a	-0.03039341
211	0xbd8c2f7b	-0.06844994
212	0x3b4ae2bf	0.0030957905
213	0x3dde68de	0.108598456
214	0xbdd6119c	-0.104525775
215	0xbdb7f5e1	-0.089824446
216	0x3dddccdc	0.108300894
217	0x3defe790	0.11714089
218	0xbda7a63f	-0.08186006
219	0xbdb334b6	-0.08750288
220	0x3b53cdb1	0.0032318647
221	0xbe010cb0	-0.12602496
222	0xbda81b3d	-0.0820832
223	0x3da9feb9	0.083005376
224	0xbdbaa00b	-0.09112557
225	0x3cfa7f77	0.030578358
226	0x3ccc13a9	0.024911718
227	0xbe026401	-0.12733461
228	0x3e0705c7	0.13185798
229	0xbdc28643	-0.09498265
230	0xbc2ae934	-0.0104315765
231	0xbd26f954	-0.04076512
232	0x3dd6c6e7	0.10487156
233	0xbca2dc27	-0.019880367
234	0x3e03e6c0	0.12880993
235	0x3d784a68	0.060617834
236	0x3cdbfc96	0.02685384
237	0x3e06bef0	0.13158774
238	0xbda3a18f	-0.07989799
239	0x3dfb3e30	0.12267721
240	0xbdd17332	-0.1022705
241	0x3e045cf6	0.12926087
242	0x3d096b9d	0.033549894
243	0x3d03b6a1	0.03215659
244	0x3ccfcf04	0.025367267
245	0xbdd2200c	-0.10260019
246	0x3b982a21	0.004643694
247	0xbdc5561d	-0.096355654
248	0x3e009311	0.12556101
249	0x3e055753	0.13021593
250	0x3dd061f0	0.1017493
251	0xbdb64aa5	-0.08900956
252	0xbdfff7d6	-0.12498443
253	0x3dd82adc	0.1055505
254	0xbddd745f	-0.10813212
255	0x3d33d842	0.04390741

model.0.bias f4 [64]
0	0x3e04ad94	0.1295684
1	0xbe030cf4	-0.1279791
2	0x3d421526	0.04738345
3	0xbc33d649	-0.0109763825
4	0x3dd29e7c	0.10284135
5	0x3d9aef21	0.075651415
6	0x3d614a57	0.055002537
7	0x3dc9b91c	0.0984976
8	0xbd6bbc52	-0.057552643
9	0xbd9c2f2b	-0.07626184
10	0x3dbc89d6	0.092059776
11	0x3ddbe23a	0.10736509
12	0xbdbba18d	-0.09161673
13	0xbb4d065e	-0.0031284313
14	0x3d80254c	0.06257114
15	0xbd0a6e57	-0.033796635
16	0xbdc7f92a	-0.09764321
17	0xbd80bc69	-0.062859364
18	0x3bbeaf88	0.005819265
19	0x3c922c84	0.017843492
20	0x3c50ee0e	0.012752069
21	0xbd84e447	-0.06488853
22	0xbd734b87	-0.0593982
23	0xbd5da34f	-0.05411082
24	0x3d534e9c	0.05158864
25	0xbc92957b	-0.017893543
26	0xbdcce8a2	-0.10005309
27	0xbdd6e1f9	-0.104923196
28	0xbe05b7aa	-0.13058344
29	0x3daa1c64	0.08306196
30	0x3d7c07a3	0.06153072
31	0x3c9af0d7	0.01891367
32	0xbc1f18ad	-0.009710473
33	0x3cab78f5	0.0209317
34	0x3dff4ef0	0.12466228
35	0x3d226505	0.03964712
36	0x3d9f8bd7	0.07790344
37	0x3d04eed3	0.032454323
38	0x3cc65505	0.024210462
39	0x3d0045a7	0.031316426
40	0xbd9c21e1	-0.076236494
41	0xbdf50a4c	-0.119648546
42	0xbd2b7dd1	-0.041868035
43	0x3dcc1972	0.09965791
44	0xbdcd572e	-0.10026394
45	0x3d1a526c	0.03767626
46	0xbd2b9b04	-0.04189588
47	0xbd3f07ba	-0.046638228
48	0xbd859158	-0.06521863
49	0xbdfd455e	-0.12366746
50	0xbd0b2e0c	-0.03397946
51	0x3d9feed4	0.07809225
52	0xbd9684f9	-0.07349581
53	0xbdb4ebd0	-0.0883404
54	0x3c98dbf5	0.018659571
55	0x3df306e6	0.1186655
56	0xbda35c0e	-0.079765424
57	0x3dd4c6ee	0.10389505
58	0x3d9af84b	0.075668894
59	0xbbcde89a	-0.006283832
60	0x3ca6b726	0.020351004
61	0xbd757bb9	-0.059932444
62	0xbd252d7d	-0.040326584
63	0xbc95eb2e	-0.018300619

model.2.weight f4 [32, 64]
0	0xbd0134e8	-0.031544596
1	0xbc634710	-0.013871923
2	0x3bc6edc0	0.0060708225
3	0xbdc4666a	-0.095898464
4	0xbd8a8e30	-0.06765401
5	0xbdded548	-0.10880524
6	0x3db45b44	0.0880647
7	0xbc8f7588	-0.017512098
8	0x3c42e990	0.011896506
9	0x3d12ec58	0.035869926
10	0xbdeb3860	-0.11485362
11	0x3db845d8	0.08997697
12	0x3c7851f0	0.015156254
13	0x3debe7fe	0.115188584
14	0xbd48e998	-0.049050897
15	0x3d722f64	0.059127226
16	0x3dac9420	0.0842669
17	0x3db7c99e	0.08974002
18	0x3df97836	0.121811315
19	0xbdabdb44	-0.08391431
20	0xbd5e5330	-0.054278553
21	0xbbfcf840	-0.0077200234
22	0xbdbfd97a	-0.09367652
23	0x3dc12652	0.09431137
24	0xbd283904	-0.04107
25	0x3cede478	0.029039606
26	0x3d0aa22c	0.033846065
27	0xbd8476ca	-0.0646797
28	0xba961e80	-0.0011453182
29	0x3dd45d2c	0.103693336
30	0xbd360edc	-0.044447765
31	0xbd523f6c	-0.051330015
32	0xbd96b24a	-0.07358225
33	0xbd6e39cc	-0.05816059
34	0xbde9a544	-0.11408475
35	0x3c536790	0.012903109
36	0x3d051bc0	0.032497168
37	0xbd5e36a8	-0.054251343
38	0xbc8e6180	-0.017380476
39	0xbd3f0110	-0.046631873
40	0x3dbbbd64	0.09166983
41	0x3da26862	0.07930066
42	0x3c9b4f68	0.018958762
43	0x3d9a3564	0.07529715
44	0x3df2c39e	0.11853717
45	0xbd7c0128	-0.06152454
46	0xbd83d488	-0.064370215
47	0xbda07240	-0.078342915
48	0xbd0a01d0	-0.033693135
49	0x3dfa9104	0.12234691
50	0xbdf2cf1c	-0.11855909
51	0x3ddeeb54	0.10884729
52	0x3c9c1af0	0.019055814
53	0xbdcc78f6	-0.09984009
54	0x3c990898	0.018680856
55	0xbd78a51c	-0.060704336
56	0xbd2b1d08	-0.041775733
57	0x3be03360	0.006842062
58	0x3dd0176c	0.10160717
59	0x3d324fa0	0.043532968
60	0x3b9ed040	0.0048466027
61	0xbdc3d00e	-0.09561168
62	0xbca2a3b8	-0.019853458
63	0x3a908580	0.0011026114
64	0x3d269b44	0.040675417
65	0x3d0b3b6c	0.033992216
66	0xbbbd6ca0	-0.0057807714
67	0xbd0351b0	-0.032060325
68	0x3d4bff28	0.049803883
69	0xbdb536b0	-0.088483214
70	0x3df744c6	0.12073664
71	0x3ccbbb68	0.024869636
72	0x3d6e8f80	0.05824232
73	0xbbc0f120	-0.0058881193
74	0xbdc4c2d2	-0.096074715
75	0x3c2683f0	0.010163292
76	0xbd2449c4	-0.04010941
77	0xbd6d70a0	-0.057968736
78	0xbd4853e4	-0.04890813
79	0x3dde12a0	0.10843396
80	0x3dc4a3ce	0.09601556
81	0xbd263d48	-0.040585786
82	0x3d442208	0.047884017
83	0xbd849aee	-0.06474863
84	0x3cf2f8b8	0.029659614
85	0xbd71f580	-0.059072018
86	0x3dc4c15c	0.09607193
87	0x3c5150d0	0.012775615
88	0x3c38e2b0	0.011284515
89	0xbc8ff018	-0.01757054
90	0x3d21ab58	0.039470047
91	0x3c49d550	0.012318924
92	0xbb8b3700	-0.0042485
93	0x3cfe2c90	0.031027108
94	0xbdc71f72	-0.097227946
95	0xbbe6b980	-0.0070411563
96	0xbd1d5be0	-0.038417697
97	0x3ccd6fc0	0.0250777
98	0xbdbcb252	-0.092136994
99	0x3d8b140e	0.067909345
100	0xbd77071c	-0.060309514
101	0xbb6d9640	-0.0036252886
102	0xbdd86d7a	-0.10567756
103	0x3bfc6440	0.0077023804
104	0x3cf95f88	0.03044106
105	0x3d9c38b4	0.07628003
106	0x3d7f6620	0.062353253
107	0x3dd75bb6	0.10515539
108	0xbdeaec26	-0.11470823
109	0x3dab3d48	0.08361298
110	0xbddd2ed6	-0.10799949
111	0x3c9f14b8	0.01941906
112	0xbde026f6	-0.10944931
113	0xbd29cc50	-0.041454613
114	0x3d81a93a	0.063311055
115	0x3da46bbc	0.08028361
116	0x3b3f73c0	0.002921328
117	0x3db20abc	0.08693454
118	0x3d4b4a08	0.04963115
119	0xbdc034cc	-0.0938507
120	0xbd5e1df4	-0.054227784
121	0xbdfd5f56	-0.123716995
122	0xbddcd40a	-0.10782631
123	0x3c4f9490	0.012669697
124	0x3dc1d012	0.094635144
125	0x3a81df00	0.0009908378
126	0xbcee0d80	-0.029059172
127	0xbdd5ff40	-0.10449076
128	0xbd3a0e38	-0.045423716
129	0xbd9ddec0	-0.07708502
130	0x3d066240	0.032808542
131	0x3d94ae22	0.07259776
132	0x3da17234	0.07883111
133	0xbdb9df24	-0.09075764
134	0x3b216f00	0.0024632812
135	0xbd0decc0	-0.03464961
136	0xbd0da44c	-0.034580514
137	0xbd3c9030	-0.046035945
138	0x3c577190	0.013149634
139	0xbdd4e344	-0.1039491
140	0x3dbf7fd0	0.0935055
141	0x3c242dc0	0.010020673
142	0xbcf472e0	-0.029839933
143	0xbd213194	-0.039353922
144	0xbc88aac0	-0.016682982
145	0x3c0b3330	0.008496091
146	0x3c78eb60	0.0151928365
147	0x3dc21584	0.0947676
148	0x3c0641e0	0.008194417
149	0x3ca4bec0	0.020110488
150	0x3df1603c	0.117859334
151	0x3d54f774	0.051993802
152	0xbdeb9ffe	-0.115051255
153	0x3d2fb2ec	0.042895243
154	0x3d86ee0a	0.06588371
155	0x3cfea880	0.031086206
156	0x3c2b1dc0	0.010444105
157	0xbc13f150	-0.009029701
158	0xbd1899f8	-0.03725621
159	0x3df56786	0.11982636
160	0xbcaa2d90	-0.020773679
161	0x3da1ebca	0.07906301
162	0xbd0c22dc	-0.034212932
163	0xbd1f50d8	-0.038895458
164	0xbd567130	-0.052354038
165	0xbdf7243e	-0.120674595
166	0x3d7766c8	0.060400754
167	0xbd871680	-0.065960884
168	0xbdb0f0e4	-0.08639696
169	0xbdfbbf4a	-0.12292345
170	0xbdda720e	-0.106662855
171	0x3d1a6390	0.037692606
172	0xbd4f0000	-0.05053711
173	0x3d421598	0.047383875
174	0xbdfbd56a	-0.12296565
175	0xbd4d6854	-0.050148323
176	0x3d8f94fa	0.07010837
177	0xbd9a145e	-0.07523416
178	0xbc302ba0	-0.0107525885
179	0x3debd076	0.1151437
180	0xbdd170aa	-0.10226567
181	0x3c7aff50	0.01531966
182	0xbd5c24b4	-0.05374594
183	0xbd3a3a2c	-0.045465633
184	0xbd7a89c4	-0.06116654
185	0x3d80be98	0.06286353
186	0x3dc01c7e	0.093804345
187	0x3dc44542	0.095835224
188	0xbd9b0f0c	-0.07571229
189	0x3d4197b0	0.0472638
190	0x3d27b070	0.04093975
191	0x3cf7b4d0	0.030237585
192	0xbced85f8	-0.028994545
193	0xbd513c30	-0.05108279
194	0xbd461590	-0.048360407
195	0xbd70f1a0	-0.05882418
196	0xbdf2e458	-0.11859959
197	0xbde08822	-0.10963465
198	0xbdf6183c	-0.12016341
199	0xbd2d440c	-0.042301223
200	0xbc71d850	-0.014761046
201	0x3d690cd4	0.056897
202	0xbd86e74c	-0.06587085
203	0xbde4a998	-0.1116516
204	0xbda64542	-0.08118679
205	0x3dbbb708	0.0916577
206	0xbdc5364a	-0.096294954
207	0xbbb9ff20	-0.005676165
208	0xbce2e900	-0.027698994
209	0x3d82f2fa	0.06394
210	0xbd154d58	-0.036450714
211	0x3dbfb4a4	0.09360626
212	0xbd6bc958	-0.057565063
213	0x3da3abd6	0.079917595
214	0xbd133514	-0.03593929
215	0xbceec250	-0.02914539
216	0x3b4ede40	0.0031565577
217	0x3ddaea14	0.10689178
218	0x3dd6c7a0	0.10487294
219	0x3d755874	0.05989881
220	0x3dbef450	0.09323943
221	0xbcefd6f0	-0.029277295
222	0x3dee3ddc	0.116328925
223	0xbd6517a0	-0.055930734
224	0xbdadb846	-0.08482413
225	0xbdadd12a	-0.084871605
226	0xbda35e52	-0.079769745
227	0x3c97e778	0.01854299
228	0xbdd99c98	-0.10625571
229	0x3cedd628	0.029032782
230	0x3db86a14	0.09004608
231	0xbbeeb560	-0.007284805
232	0x3da89c42	0.08232929
233	0xbc19ebd0	-0.009394601
234	0x3d9c9280	0.0764513
235	0xbddacaa8	-0.10683185
236	0xbc4ee130	-0.012626931
237	0x3da5bf1e	0.08093093
238	0xbdc6f15c	-0.097140044
239	0xbd6ea610	-0.05826384
240	0x3df22224	0.11822918
241	0xbdfcf364	-0.123511106
242	0x3dff01b0	0.12451494
243	0x3db20f9e	0.08694385
244	0x3de59748	0.11210495
245	0xbdaf27fe	-0.0855255
246	0x38b30000	8.535385e-05
247	0xbd233814	-0.039848402
248	0x3de861f8	0.11346811
249	0x3da9164a	0.082562044
250	0x3d82633c	0.06366584
251	0xbd06a2bc	-0.03287004
252	0x3ccc8fd0	0.024970919
253	0xbda9fc4a	-0.083000734
254	0xbd15248c	-0.036411807
255	0x3d985048	0.074371874

model.2.bias f4 [32]
0	0x3da2a52c	0.0794166
1	0x3cdf6f50	0.027274758
2	0xbdbcbc1a	-0.09215565
3	0x3d22a7b8	0.03971073
4	0x3d70e6a8	0.05881372
5	0x3dd7af58	0.10531491
6	0xbdbe2982	-0.09285261
7	0xbcb91460	-0.022592723
8	0x3c59b940	0.013288796
9	0xba9db300	-0.0012031496
10	0x3cf54c58	0.02994363
11	0xbdb695d8	-0.08915299
12	0x3d1bffbc	0.038085684
13	0x3df9d39e	0.12198566
14	0x3c928aa8	0.017888382
15	0x3d80e85c	0.06294319
16	0xbdef761e	-0.11692451
17	0xbdfce230	-0.12347829
18	0x3d050040	0.03247094
19	0xbdf953a0	-0.12174153
20	0x3dce7db0	0.10082567
21	0xbd8fed5a	-0.07027693
22	0x3cb25f30	0.021773905
23	0xbd87959c	-0.066203326
24	0x3d875e5a	0.06609793
25	0x3ce1eec8	0.02757968
26	0xbd2c73c0	-0.042102575
27	0x3cd7fd70	0.026365966
28	0xbdf8ef40	-0.12155008
29	0xbdee7db6	-0.11645071
30	0x3dc4e092	0.09613146
31	0xbce53060	-0.027977169

model.4.weight f4 [1, 32]
0	0xbd5846dc	-0.05280195
1	0xbe31c919	-0.17361869
2	0x3d8cf2b0	0.068822265
3	0x3d59c315	0.05316456
4	0x3d8b4b92	0.06801523
5	0xbe337f19	-0.17528953
6	0xbde42e03	-0.111415885
7	0xbd45b807	-0.048271205
8	0x3cedf48b	0.029047271
9	0xbd627ce6	-0.055294894
10	0x3d71a104	0.058991447
11	0x3d7bf828	0.061515957
12	0x3761912b	1.3444845e-05
13	0xbd5cfb6a	-0.053950705
14	0xbd675c09	-0.056484256
15	0xbb4688b7	-0.003029389
16	0xbdfca851	-0.12336791
17	0xbddd3774	-0.108015925
18	0x3d569068	0.05238381
19	0x3dd1fbf0	0.102531314
20	0x3d1e39b5	0.038629252
21	0xbdd587a4	-0.10426262
22	0x3e31f11f	0.17377137
23	0x3d1a3549	0.037648473
24	0xbd2f966c	-0.042868063
25	0xbd908576	-0.07056706
26	0x3d8f17ff	0.06986999
27	0x3dee82a0	0.116460085
28	0x3dc835af	0.09775864
29	0xbdfea05c	-0.1243293
30	0xbc467dee	-0.012114985
31	0xbd394924	-0.045235768
